btc_predict_conv/checkpoint/lstm/btc_pv240min/model_lstm.pth (torch, 807690 bytes, 9 tensors)

module.lstm.weight_ih_l0 f4 [512, 5]
000000 08 df 50 39 ae 0a 6f bc ba 3d b1 3d d0 47 86 bd
       0.00019919511 -0.014589949 0.086543515 -0.06556666
000010 fb 0e 99 bd 7f a0 d0 39 da 7f 8c 39 0a 0b 6e 39
       -0.074735604 0.0003979243 0.00026798138 0.00022701561
000020 3d 3b 2b 39 f6 8e fc 39 57 1d b1 bd 5f 46 42 bd
       0.00016329899 0.000481717 -0.08648174 -0.047430392
000030 2e 0d aa 3d 9c 8e bb bc 26 84 67 3d 59 19 ff bc
       0.08303295 -0.02289515 0.05652251 -0.031140016
000040 73 7b 04 bc ca 4b b1 3d 32 db 51 3d 2c fe 84 bd
       -0.008086073 0.08657034 0.05123443 -0.06493792
000050 83 fc 5c 37 6a e3 d4 36 9f 65 cf a1 70 2d 78 37
       1.3171814e-05 6.344567e-06 -1.4053764e-18 1.4792531e-05
000060 e9 17 0c 38 d6 da 6a a1 7a 9b e5 21 bd b8 e2 a1
       3.340087e-05 -7.957191e-19 1.5558798e-18 -1.5363256e-18
000070 87 96 74 a0 55 39 cf 21 ff ad 54 3d c7 03 a1 bd
       -2.0717409e-19 1.4042041e-18 0.051923748 -0.078620486
000080 54 9a 27 3d f3 c0 4c bd 16 cd 55 3d 9c c6 9a a8
       0.040918663 -0.0499887 0.05219754 -1.7183568e-14
000090 8d 64 9b a8 a3 67 e9 28 8e e9 96 a8 e8 f2 8b a8
       -1.7252064e-14 2.5913142e-14 -1.6754634e-14 -1.5537444e-14
0000a0 bc fb 8a 38 74 5c f5 b8 1a ea 28 9d 2f 9f 27 b9
       6.627242e-05 -0.00011699731 -2.2355643e-21 -0.00015985662
0000b0 c7 93 40 b9 ca 02 b2 b8 67 72 c5 b8 b9 8a d4 b8
       -0.00018365598 -8.488221e-05 -9.415001e-05 -0.00010134787
0000c0 66 56 ac b8 21 f4 b2 b8 4d b0 e9 bb dc 61 eb bb
       -8.217692e-05 -8.533174e-05 -0.0071316124 -0.0071832966
0000d0 11 27 f5 bb a4 15 ee bb 17 00 ed bb c1 4c d0 9e
       -0.0074814637 -0.0072657634 -0.0072326767 -2.2054601e-20
0000e0 5b 02 a0 18 21 d9 33 18 6d f2 19 20 ab d9 26 1a
       4.136141e-24 2.324483e-24 1.3039816e-19 3.4503826e-23
0000f0 f4 56 17 3c f2 b3 14 3c 10 52 87 a0 c2 42 1b 3c
       0.00923704 0.009076105 -2.2924194e-19 0.0094763655
000100 df f4 39 3c 3b 7f 0a bc d8 84 45 bc fa 1d 89 3c
       0.011349886 -0.008453186 -0.012055598 0.016737927
000110 09 d5 0e 3c 0f d5 97 bc b0 bd 7a 3c 58 1e 74 3c
       0.008717784 -0.018534211 0.015304014 0.014899813
000120 79 3f 74 3c db 60 79 3c 98 07 74 3c 57 5d 8b 3c
       0.014907711 0.015220846 0.014894389 0.017012281
000130 f1 f0 8b 3c 1d a9 99 3c d3 e1 8b 3c ad 3b 8c 3c
       0.017082663 0.018757397 0.017075455 0.0171183
000140 4e d4 2f 3c 34 76 5b bd 65 9e 70 3c 5f fe 81 bd
       0.01073177 -0.053579524 0.014686202 -0.063473456
000150 b4 54 7d 3d d6 26 38 bc 22 d7 38 bc a4 08 3c bc
       0.061848357 -0.011239728 -0.01128176 -0.011476669
000160 77 6a 39 bc 6b 7d 38 bc 21 4b 9a bd 9a 87 90 3d
       -0.011316887 -0.011260371 -0.07533861 0.07057114
000170 18 07 ff 3b ce 4d 79 3d 04 25 93 bd 28 cd 7a 3c
       0.007782828 0.060865216 -0.071847945 0.015307702
000180 20 a3 80 3c a4 f1 88 3c ff 0a 7c 3c 84 74 70 3c
       0.015702784 0.016716786 0.015383481 0.014676217
000190 88 05 a2 bc 38 19 a2 bc 48 02 84 bc 09 0e a2 bc
       -0.019778028 -0.019787416 -0.016114369 -0.019782083
0001a0 3f 3d a2 bc e2 c5 5a 3c a5 5c 67 3c a1 a3 79 3c
       -0.019804595 0.013352843 0.014121209 0.015236766
0001b0 e6 d2 50 3c 9b c4 5a 3c 6f d0 98 bc ed 10 8e bd
       0.012745595 0.013352538 -0.018654076 -0.06936822
0001c0 14 aa 59 3d 36 fe 65 bd c8 e1 91 bb 09 c0 6c 3b
       0.053140715 -0.056150638 -0.004451964 0.0036125204
0001d0 4c 53 78 3b 8c a8 6d 3c 41 4a 6f 3b 4a cf 7d 3b
       0.0037891446 0.014505517 0.0036512765 0.003872829
0001e0 17 6b f1 a2 7d 14 8c 24 0a 1c f9 22 f2 12 2b 21
       -6.5436567e-18 6.075003e-17 6.7521273e-18 5.796213e-19
0001f0 5f a3 a7 22 3a 25 42 a4 9b 1c 93 20 7e b1 08 a5
       4.5438417e-18 -4.2098576e-17 2.4921698e-19 -1.1856256e-16
000200 ce 8a 31 24 16 ab e4 23 d4 45 89 3c 9a 9f 11 3d
       3.849833e-17 2.4792267e-17 0.01675693 0.0355526
000210 2d 9b 98 bd 97 de 40 3c 12 a7 2e 3d 90 ec cc 1b
       -0.074514724 0.01177182 0.0426398 3.3901844e-22
000220 ff d2 b9 1b 02 fe d9 1c 1c 42 c1 9b 08 85 bd 98
       3.0742036e-22 1.4425515e-21 -3.1971894e-22 -4.8989682e-24
000230 d6 4a 63 ba 75 34 68 ba ef ed d0 b9 70 92 70 ba
       -0.0008670514 -0.00088579144 -0.00039850126 -0.00091770943
000240 71 a7 6a ba 80 7d 48 bc 97 b5 4a bc c0 9b 72 bc
       -0.00089513423 -0.012236953 -0.012372396 -0.0148076415
000250 c7 c3 3f bc dd 49 41 bc 16 c8 b7 3c 06 35 b9 3c
       -0.011704392 -0.011797396 0.022434276 0.022608291
000260 92 33 0e 3d 73 0e b8 3c 99 3d ba 3c a8 cd 0e bc
       0.03471715 0.022467827 0.02273445 -0.008716024
000270 f0 1c e7 bb db f3 d7 ba 34 14 33 bc 47 69 1c bd
       -0.00705301 -0.0016475873 -0.01093011 -0.038186338
000280 a3 f0 0e ac 6d 49 24 2a 1a cc 13 27 2f b7 b2 a7
       -2.0312994e-12 1.4591601e-13 2.0510992e-15 -4.9603533e-15
000290 23 32 50 2a 02 8a fb bb 56 8b fc bb 4d 12 05 bc
       1.8491506e-13 -0.007676364 -0.00770704 -0.008122039
0002a0 13 a5 fc bb 18 22 fe bb d9 85 5c bc 88 c3 36 bc
       -0.007710108 -0.007755529 -0.013459646 -0.011155017
0002b0 e9 7e 7d bc ae d9 42 bc 93 ff 3f bc 96 fa 91 ba
       -0.015472152 -0.011892719 -0.0117186485 -0.0011137302
0002c0 de 9e 92 ba 6c 7e 61 ba 7c 37 94 ba 38 35 96 ba
       -0.0011186262 -0.0008601907 -0.001130804 -0.0011459952
0002d0 91 0b f1 3a 9a c0 a5 3a 17 5f 31 3b c5 f1 90 3a
       0.0018390288 0.0012645901 0.0027064735 0.0011058381
0002e0 69 5e a6 3a b9 7f f4 21 75 cd 78 22 c9 b9 86 a5
       0.0012692931 1.6567891e-18 3.3719035e-18 -2.3371187e-16
0002f0 cb ce 64 22 7e 6e 44 a5 ad 90 8b 3c 6d 8d 8b 3c
       3.1009237e-18 -1.7037726e-16 0.01703676 0.01703521
000300 47 80 58 3c ba 76 89 3c eb 99 8b 3c 46 e7 b6 3d
       0.013214177 0.016780246 0.017041167 0.08930831
000310 b7 92 21 3b e5 c2 75 bc 46 c3 6d bd dc 70 9a 3c
       0.00246541 -0.01500008 -0.058047555 0.018852644
000320 54 9e 2e b0 eb 73 44 af c6 fc 11 30 52 53 21 b0
       -6.352583e-10 -1.7867278e-10 5.3109905e-10 -5.8689864e-10
000330 e1 31 7e af e9 2a f9 b8 bd 4b ec b8 9e 16 c5 ba
       -2.3118886e-10 -0.00011881238 -0.00011267464 -0.0015036648
000340 0b e5 ea b8 f2 9c fc b8 14 3b 82 ba bc b1 82 ba
       -0.00011200652 -0.0001204553 -0.000993582 -0.0009971182
000350 a9 a5 27 ba 1b 7f 82 ba b4 63 83 ba ef bf 80 bd
       -0.000639523 -0.0009956093 -0.0010024221 -0.062866084
000360 16 21 cc bc b8 3f 9b 3d e3 26 1f bd 40 ba 85 bd
       -0.02491812 0.07580513 -0.038855445 -0.06529665
000370 a9 2f 7a bc 46 08 7a bc b4 85 88 bc 58 4d 7a bc
       -0.015270152 -0.015260762 -0.016665317 -0.015277229
000380 27 9e 7c bc b5 c4 57 bc 85 cf 53 bc 24 39 43 bc
       -0.015418566 -0.013169457 -0.0129278945 -0.011915479
000390 f7 2d 55 bc fb a5 53 bc 90 94 9a 99 0f d3 32 1e
       -0.013011447 -0.012917991 -1.598323e-23 9.4668874e-21
0003a0 80 95 17 18 67 af a0 9a dc 22 f3 18 55 37 ff b9
       1.959177e-24 -6.6457827e-23 6.2849227e-24 -0.00048678616
0003b0 a3 25 b9 39 ba d5 ab 3b 14 de f6 ba db db 92 3b
       0.0003531399 0.005243984 -0.0018834495 0.004481775
0003c0 5c 06 7f bc 63 0f 84 bc 7c af 66 bc 20 30 81 bc
       -0.015565481 -0.016120618 -0.014079925 -0.015770018
0003d0 e1 05 81 bc be b5 84 bb 54 15 8b 3d b9 a3 a8 ba
       -0.015749874 -0.0040499857 0.067911774 -0.0012866176
0003e0 03 3c 54 3c 4b 68 6d bc 43 41 38 3d c4 55 0e 3d
       0.012953761 -0.014490197 0.044984113 0.03474976
0003f0 c9 e4 8d bd da 8d 83 3d 62 5c 23 bd 03 be 3b bc
       -0.06928403 0.064235404 -0.039883025 -0.011458877

module.lstm.weight_hh_l0 f4 [512, 128]
000000 db 3c 1d 1f b0 5d 0e a4 64 1b 7c b0 f7 18 b3 2d
       3.3296382e-20 -3.0870698e-17 -9.171599e-10 2.036103e-11
000010 ab 50 64 ac 36 f2 8e 18 29 b3 32 32 bf ea bb 9b
       -3.2445528e-12 3.695071e-24 1.04017e-08 -3.1088256e-22
000020 8d f8 7f 9d 12 67 cd 9a 2a 8d fe 99 01 c9 51 98
       -3.3877467e-21 -8.495253e-23 -2.632e-23 -2.7114098e-24
000030 13 93 52 31 da 1a d6 19 e5 b6 3c b1 f1 27 1e 1a
       3.0642624e-09 2.2137927e-23 -2.7461564e-09 3.27059e-23
000040 4d 85 7e 32 59 b2 c4 1f 46 96 8a 2e 81 8c 26 a4
       1.4815055e-08 8.330428e-20 6.3022074e-11 -3.6114524e-17
000050 00 48 8e 9c ad 0a ec 31 12 17 38 9f 37 72 8b 1b
       -9.415383e-22 6.8697177e-09 -3.89826e-20 2.306943e-22
000060 d4 9c a0 19 75 97 c5 1b ec 6f 34 ac 1b 25 e7 9e
       1.6606955e-23 3.2688793e-22 -2.5641668e-12 -2.4473423e-20
000070 53 04 8a a0 f2 6e 69 1e cc ef 18 18 3a 58 5c 20
       -2.338097e-19 1.235786e-20 1.9766606e-24 1.8663917e-19
000080 73 ee d7 98 8e 52 08 9d 08 70 68 9d 49 41 83 9b
       -5.581697e-24 -1.804213e-21 -3.0762863e-21 -2.1714322e-22
000090 c2 0f ae 9a 42 94 d1 1c c8 46 14 1b f4 ae 82 a8
       -7.199017e-23 1.3868784e-21 1.2265144e-22 -1.4508773e-14
0000a0 30 3a 3a 1e 45 2d 0f 20 d2 08 b7 2c 5b 66 8d 1c
       9.858791e-21 1.212755e-19 5.202152e-12 9.357056e-22
0000b0 5b c9 81 2e 3d 46 b1 9a 13 7d a3 16 e6 9f 99 18
       5.902009e-11 -7.331896e-23 2.6413003e-25 3.971103e-24
0000c0 98 ae c1 16 42 65 09 2b d8 c2 80 a8 62 c1 59 1e
       3.1291016e-25 4.88127e-13 -1.4295355e-14 1.1527875e-20
0000d0 e3 e4 91 9a 0a 14 a0 1f 56 d0 3d 98 73 ae 1b 30
       -6.034038e-23 6.779579e-20 -2.453286e-24 5.663658e-10
0000e0 a4 22 8d 1c 77 82 88 9e a0 14 9b 18 16 bb c8 1b
       9.339552e-22 -1.4453519e-20 4.0087387e-24 3.3208126e-22
0000f0 0b 66 f3 18 03 35 b0 18 b5 7f a8 1d e1 01 b6 b0
       6.2917065e-24 4.554846e-24 4.4601276e-21 -1.3242777e-09
000100 eb 77 85 9e 09 8c 77 9d 4d d8 57 19 cb f1 64 b1
       -1.413152e-20 -3.2762574e-21 1.1158921e-23 -3.331581e-09
000110 c0 8e 36 b3 c8 15 60 1d e1 83 bf 19 c1 c4 75 9d
       -4.2505008e-08 2.9657414e-21 1.9802203e-23 -3.25272e-21
000120 a6 65 36 33 34 5e 66 9a 1a 98 10 99 7c 1b 20 31
       4.2467626e-08 -4.7638982e-23 -7.475342e-24 2.3298687e-09
000130 2e fa 81 9a 01 4b 4b ae 4c 11 e5 b1 3d b0 8b 9b
       -5.3757337e-23 -4.6223473e-11 -6.6667436e-09 -2.3109512e-22
000140 5d 69 91 33 39 a7 e4 18 74 e3 90 a4 51 11 ce b2
       6.771254e-08 5.910547e-24 -6.2835366e-17 -2.398943e-08
000150 dd 21 d9 1a 15 60 28 9d 7e e1 20 1b e9 6f 0f 1a
       8.9803806e-23 -2.2284288e-21 1.330775e-22 2.9662107e-23
000160 ae e5 17 20 14 db 2e 1a 7a e0 e4 aa d8 d9 7b 1f
       1.2866192e-19 3.6159327e-23 -4.0656698e-13 5.3331514e-20
000170 c3 ab 8c ad e9 c3 8d 31 9d 63 9a 1a 84 4b 69 18
       -1.5992435e-11 4.1259125e-09 6.385384e-23 3.015267e-24
000180 6d ad 77 a8 8d 52 33 ab ae f4 15 9e 45 3a 18 1f
       -1.374886e-14 -6.3708137e-13 -7.938593e-21 3.223545e-20
000190 50 f9 1e 2f c5 b6 29 96 ca 76 57 17 be c6 2a 19
       1.445859e-10 -1.3709383e-25 6.962018e-25 8.82893e-24
0001a0 08 e3 c4 98 7e cc 0b a0 07 ce 5e b0 be 11 ba b2
       -5.0894055e-24 -1.1841419e-19 -8.105591e-10 -2.1661318e-08
0001b0 5c bf 79 9f 1f b6 18 1b 9b 50 74 1c 87 d8 09 19
       -5.288609e-20 1.2631992e-22 8.083701e-22 7.126461e-24
0001c0 dd 6f 3c 9a fd 7c ca a6 ad 79 15 a2 dc b0 e3 18
       -3.896785e-23 -1.4050444e-15 -2.025768e-18 5.8856707e-24
0001d0 ea af 4d 31 5f a9 00 ac c2 4f 6f 1c af e4 39 1e
       2.9931422e-09 -1.8283914e-12 7.918155e-22 9.841109e-21
0001e0 5d 1d 09 a7 37 36 08 9a 0d a2 a1 2b d0 76 aa b2
       -1.9028487e-15 -2.8167935e-23 1.1484716e-12 -1.9844634e-08
0001f0 8b 0a e1 1f 46 86 7e 18 0d f9 6f 97 6a 39 18 1e
       9.530865e-20 3.2896521e-24 -7.753941e-25 8.058686e-21
000200 05 e1 bc 9a 49 4f 40 32 d8 09 10 97 8c af 61 32
       -7.8118516e-23 1.1193898e-08 -4.6541334e-25 1.3136638e-08
000210 61 1e 49 19 b5 35 d1 19 8f 25 e0 29 f6 a7 f4 9e
       1.03975914e-23 2.1631786e-23 9.954114e-14 -2.5903972e-20
000220 05 96 68 9f e9 3c 29 ab dd ff c4 1c 92 d7 0c 97
       -4.9252004e-20 -6.012539e-13 1.3036331e-21 -4.550853e-25
000230 18 46 79 b2 a4 d8 33 9e c5 3d 20 b1 8f f1 12 b2
       -1.4509645e-08 -9.520981e-21 -2.3318176e-09 -8.553243e-09
000240 6b 97 91 ad ab 3c 1a 1a e6 a6 17 18 ca 76 37 30
       -1.6551835e-11 3.189546e-23 1.9600555e-24 6.674382e-10
000250 30 1a 9d a5 04 a2 18 29 e8 78 b0 ae ab 99 48 ad
       -2.7252904e-16 3.3891306e-14 -8.0250306e-11 -1.1402805e-11
000260 50 fb cb 9e a2 30 0d 1a f7 ca c5 31 6b 36 c1 19
       -2.1597401e-20 2.9197402e-23 5.756529e-09 1.9977712e-23
000270 e7 ff 46 24 89 23 3b 19 f0 8e 14 b2 4b 81 26 99
       4.3151164e-17 9.67485e-24 -8.647234e-09 -8.608109e-24
000280 51 03 19 9a d0 71 a2 9e 58 f7 d0 99 85 1d 81 27
       -3.1642337e-23 -1.7199489e-20 -2.1606597e-23 3.5836698e-15
000290 1b 27 c3 9f 6f ac 0c 97 ac d1 1d b2 bb 66 60 32
       -8.265041e-20 -4.545408e-25 -9.186277e-09 1.3061874e-08
0002a0 04 00 27 a5 f3 ee 95 99 3a eb 34 a5 9e 83 c1 2e
       -1.4484946e-16 -1.550275e-23 -1.5692209e-16 8.800004e-11
0002b0 d9 3d 80 99 9d 99 9c 97 b3 ee 68 1b 0d 62 87 1b
       -1.325987e-23 -1.0120041e-24 1.9267718e-22 2.239724e-22
0002c0 fc b0 14 20 81 33 21 9a 1b a3 09 2d 99 7d c1 1f
       1.2594647e-19 -3.3335624e-23 7.823765e-12 8.1946463e-20
0002d0 7a 5f e2 97 fc 54 87 a4 de 62 cf a8 a9 32 30 b2
       -1.4629009e-24 -5.8690886e-17 -2.3024493e-14 -1.0256067e-08
0002e0 e3 46 54 9d 8b f8 2f 2e 06 ac a8 1d ec 35 65 98
       -2.8094614e-21 4.0011144e-11 4.4647098e-21 -2.962478e-24
0002f0 fa 69 0e 19 44 ab e2 97 7a b2 7e b2 81 ab 46 b2
       7.36263e-24 -1.4648141e-24 -1.4825327e-08 -1.1564112e-08
000300 7e c5 04 21 c6 20 09 20 bd 94 1d a4 0a 26 51 b2
       4.498472e-19 1.1615195e-19 -3.4169934e-17 -1.217405e-08
000310 93 fb f4 99 e8 92 71 32 fe 07 57 ab 31 fd cd 99
       -2.5330619e-23 1.4061449e-08 -7.6394435e-13 -2.1298766e-23
000320 98 31 4d 32 26 12 50 1b ce c1 31 1c e4 6c 0c 2d
       1.1943847e-08 1.7211221e-22 5.8814874e-22 7.982257e-12
000330 ba 1d 32 1b 1c 44 91 96 2e 84 53 32 fa e8 48 1c
       1.473342e-22 -2.3468997e-25 1.2311871e-08 6.6475564e-22
000340 b9 81 93 1e aa 12 9d 1f 93 ad c0 a7 cc f0 68 32
       1.5617882e-20 6.6522963e-20 -5.3478895e-15 1.3558928e-08
000350 b3 ed 60 9a df 6b 99 ae 9c 37 11 a6 47 79 ba 1c
       -4.6514126e-23 -6.976796e-11 -5.0382346e-16 1.2339797e-21
000360 33 70 1a 28 8c d9 29 98 19 b9 bb 98 29 46 1d 2a
       8.573047e-15 -2.1952571e-24 -4.8525268e-24 1.3968743e-13
000370 dc 51 43 30 c2 50 59 b2 33 7b 18 32 9b 43 ac 9e
       7.1056916e-10 -1.2649425e-08 8.875577e-09 -1.823917e-20
000380 51 f3 f6 b1 67 58 d1 18 24 fc b0 a9 f9 c0 80 32
       -7.187204e-09 5.4114497e-24 -7.8597095e-14 1.4988915e-08
000390 e0 a2 4b a8 2a 5f 41 1d 00 bb 35 99 d0 63 47 a9
       -1.1304082e-14 2.5592536e-21 -9.395245e-24 -4.427345e-14
0003a0 e3 0a 1a 18 ef 85 30 9f 5b ec 89 a6 0c 59 68 32
       1.990953e-24 -3.7380237e-20 -9.570349e-16 1.3524424e-08
0003b0 2a d2 6f 32 54 26 03 99 2c 53 e0 1a cd 77 07 9b
       1.3959417e-08 -6.7802816e-24 9.27786e-23 -1.1205648e-22
0003c0 e5 e2 37 9e af 28 a5 99 0b 51 da b0 33 52 fb 9d
       -9.73486e-21 -1.7077032e-23 -1.5884621e-09 -6.652414e-21
0003d0 cd b5 80 b2 20 e7 f7 97 a7 1b a3 9e c9 6b 71 b2
       -1.4983835e-08 -1.6020345e-24 -1.7269733e-20 -1.4052554e-08
0003e0 b9 23 51 9a db 9c c5 b0 42 4f 61 b2 d2 6d d1 29
       -4.3249044e-23 -1.4378218e-09 -1.3114745e-08 9.300515e-14
0003f0 68 bb 5a ad 07 57 1b 9b a2 1c 2f 9a 39 ad 62 b2
       -1.2433478e-11 -1.284942e-22 -3.621228e-23 -1.3194318e-08

module.lstm.bias_ih_l0 f4 [512]
000000 34 9b 6b b1 c9 ba c6 33 4f 79 ad 3b 3e 5b 33 39
       -3.4285224e-09 9.2540695e-08 0.005294002 0.0001710476
000010 dc 9b ac 1e 93 a1 8b 1a 0a e8 ae b6 77 83 a5 a2
       1.827567e-20 5.775009e-23 -5.212617e-06 -4.4862533e-18
000020 17 e3 12 9f b8 a3 dd b1 fb 1e d0 9f 42 0a 7a 1f
       -3.1104547e-20 -6.450559e-09 -8.814268e-20 5.2948044e-20
000030 6d 38 a3 1b e7 5c b1 b1 ec bb 00 a2 46 91 c3 b5
       2.7002552e-22 -5.1619398e-09 -1.744672e-18 -1.4570912e-06
000040 9d bb b5 b8 2e a5 84 a0 62 16 d3 bb ca 05 7a a1
       -8.665698e-05 -2.2470977e-19 -0.006441877 -8.4710956e-19
000050 c2 fd ae 36 7a f8 9d 23 2e 39 08 b7 cd c3 3b 2a
       5.2151454e-06 1.7127208e-17 -8.119545e-06 1.6676868e-13
000060 6a d3 4a 9a 3c 0b 46 1e 93 c4 98 38 43 db 6f 19
       -4.19434e-23 1.0484356e-20 7.2845396e-05 1.240029e-23
000070 b2 89 d9 b2 42 e5 aa 20 7d f5 18 ad 34 9d b4 19
       -2.5324741e-08 2.895083e-19 -8.694709e-12 1.8675058e-23
000080 9e 16 ef 9e 96 46 de aa 64 b1 59 9f 1b 48 bd b4
       -2.5314464e-20 -3.94841e-13 -4.609827e-20 -3.5256457e-07
000090 17 b6 2c 9c 97 7d 32 9a 33 27 a3 27 03 c4 0b b9
       -5.714537e-22 -3.6910988e-23 4.528409e-15 -0.00013329093
0000a0 f5 1b 59 29 6c 71 6e 1f a8 3e 56 b4 dd e9 7e b9
       4.8207928e-14 5.049228e-20 -1.9953097e-07 -0.00024310448
0000b0 90 28 bd a4 4d e4 87 9f 15 95 05 9c a5 fe 9a 9e
       -8.20344e-17 -5.7552416e-20 -4.4198693e-22 -1.6410703e-20
0000c0 a3 f0 06 2d 6d 51 46 1a ab 35 d4 b7 bb 3e 56 9f
       7.67045e-12 4.1011216e-23 -2.529736e-05 -4.5368152e-20
0000d0 d6 cc 19 a5 1b 0d 81 ab e5 8f df 2a d5 a4 33 36
       -1.3340036e-16 -9.169639e-13 3.9712604e-13 2.6769023e-06
0000e0 44 2d 8e 9a 1a 5a 0c 1f a4 39 0c b8 ea a3 ff 20
       -5.8802954e-23 2.9720683e-20 -3.3432283e-05 4.330715e-19
0000f0 27 8c a0 24 70 0d 3b 1d cf e0 49 34 a6 b7 78 b9
       6.9626366e-17 2.475619e-21 1.8801369e-07 -0.00023719537
000100 9d 2e 49 23 6e 38 ae 2a c1 0b b1 24 56 90 cf a0
       1.09061026e-17 3.0947765e-13 7.6781426e-17 -3.5162678e-19
000110 6c b2 a7 1e 11 27 d1 9c 09 22 bf 37 52 ef b6 23
       1.7755606e-20 -1.3840558e-21 2.2784823e-05 1.9833836e-17
000120 e1 85 80 39 b4 f8 19 98 8c a4 b9 99 64 66 27 b6
       0.0002451381 -1.990035e-24 -1.9195012e-23 -2.4944538e-06
000130 fe d8 1b 1b 60 27 1a 9c d7 8e ae 34 03 15 7d 9c
       1.2891413e-22 -5.1005217e-22 3.2513955e-07 -8.3737835e-22
000140 45 c9 00 a1 a6 01 0d a7 b9 c4 89 ab b1 d1 13 34
       -4.3634465e-19 -1.9568574e-15 -9.789037e-13 1.3766727e-07
000150 3d 37 1e 9c e2 47 15 ba 9a be d3 35 6d 8f d6 9f
       -5.234921e-22 -0.00056946103 1.5776197e-06 -9.0869803e-20
000160 40 bb cc b6 2e 45 52 9e a1 46 62 1f ae 3d c8 b1
       -6.1014725e-06 -1.11316135e-20 4.7915784e-20 -5.8277783e-09
000170 3f 89 ef 22 66 51 c8 35 65 f2 cd a0 2f 5b e2 aa
       6.4926395e-18 1.4924851e-06 -3.4888754e-19 -4.0208936e-13
000180 0e a4 61 31 d9 f5 0a 20 71 fb 35 2f aa 29 fb a9
       3.2835064e-09 1.1770399e-19 1.6551184e-10 -1.1153867e-13
000190 f2 57 6a b3 87 53 b5 a3 a1 b7 a1 a3 dc 6c 3f b5
       -5.4562356e-08 -1.9659435e-17 -1.7533425e-17 -7.1311456e-07
0001a0 09 2c bf 1f 25 34 94 26 a2 3a a7 32 ff 07 14 9f
       8.0964497e-20 1.0283697e-15 1.9468022e-08 -3.1346833e-20
0001b0 2e 1f 90 1d e0 7d 8a a8 01 70 20 98 24 af 1f 1b
       3.814872e-21 -1.5375667e-14 -2.0736063e-24 1.3208763e-22
0001c0 62 ed d0 99 70 90 f7 b2 5e 45 2e 34 6e a1 34 2c
       -2.1602574e-23 -2.8820267e-08 1.6230248e-07 2.566915e-12
0001d0 d3 01 29 34 21 be 93 1e 68 a2 7a a2 98 84 85 a9
       1.5740015e-07 1.5642866e-20 -3.3967295e-18 -5.929388e-14
0001e0 ef d5 0f 18 20 63 f7 1a 21 87 93 1f a7 de ba b4
       1.8590326e-24 1.0231695e-22 6.2480474e-20 -3.48072e-07
0001f0 80 b4 ce b8 7f 5a 53 b2 9d d2 c8 24 e1 52 c5 b1
       -9.856466e-05 -1.2302393e-08 8.7092967e-17 -5.742877e-09
000200 8d cb 18 1a b9 22 1b a3 2b 21 83 1c 13 b2 2e 1c
       3.159729e-23 -8.40992e-18 8.677427e-22 5.7801926e-22
000210 41 d3 79 9f 1d 73 b5 1b fc 44 0c 1c c9 f9 d7 22
       -5.2902546e-20 3.0018328e-22 4.6411275e-22 5.8540337e-18
000220 03 5a 33 1c 92 99 07 31 91 f4 5d 9f 45 2d 67 99
       5.934247e-22 1.973238e-09 -4.700087e-20 -1.1951562e-23
000230 67 3d 93 af 98 4f 3b b3 d8 3e 00 b9 bd 55 8b b3
       -2.6782773e-10 -4.361172e-08 -0.00012230442 -6.4882876e-08
000240 14 77 1b 1c 0a 5f 04 20 1a 2f 0b 97 60 bf 5e 9c
       5.1439103e-22 1.1212281e-19 -4.4972773e-25 -7.3700985e-22
000250 2e da ae 35 52 c0 ec 9e e1 65 b6 99 e4 33 59 1d
       1.3027509e-06 -2.5067014e-20 -1.8859507e-23 2.8746538e-21
000260 2e 88 b8 1b 96 cd 2c 21 94 78 c8 32 e3 3b 85 99
       3.052825e-22 5.854796e-19 2.3337897e-08 -1.3776066e-23
000270 bd 6d 45 b2 a6 1f 1e 1e c0 b4 d3 b3 de 61 1b 9d
       -1.1491861e-08 8.370995e-21 -9.8583314e-08 -2.0564675e-21
000280 14 a6 16 a0 9b 35 86 a9 c0 d6 ad 96 ca d4 09 b2
       -1.2760445e-19 -5.9600945e-14 -2.8085184e-25 -8.022832e-09
000290 a0 b2 46 99 5b d3 6a 1d 20 21 78 a5 1d b2 5e b4
       -1.0272433e-23 3.107891e-21 -2.1521794e-16 -2.0740158e-07
0002a0 2e 35 54 28 f6 cb bf 1a ee 60 21 b2 fe 0c 00 1d
       1.17798956e-14 7.9325265e-23 -9.393473e-09 1.6947376e-21
0002b0 12 bf 54 a0 13 12 80 1f 2e 8f 4c 99 04 27 10 9b
       -1.8020318e-19 5.424001e-20 -1.0575468e-23 -1.1924007e-22
0002c0 45 31 6f ab f0 a5 23 1c d0 0c bc 2d 89 48 60 1a
       -8.497823e-13 5.4146645e-22 2.1378815e-11 4.6380708e-23
0002d0 1f 7d f8 18 8d c8 86 29 d3 8b 87 2a ca ea 38 9e
       6.4232837e-24 5.9855854e-14 2.407784e-13 -9.789432e-21
0002e0 e7 22 6f 98 06 bb 11 9e 0d 60 ca 21 35 2c db a0
       -3.0907647e-24 -7.714912e-21 1.3713477e-18 -3.7129297e-19
0002f0 1f ed 23 2e 49 33 88 9c 00 19 56 a9 43 05 26 9f
       3.7272515e-11 -9.012982e-22 -4.753923e-14 -3.515622e-20
000300 c1 89 10 a3 3a 74 3c a1 b7 54 02 24 98 cb 53 b9
       -7.835426e-18 -6.38507e-19 2.8261013e-17 -0.00020198373
000310 2f c0 23 9b 78 fb b1 1e 0c c7 d9 9c 48 e3 2f 18
       -1.3545142e-22 1.8844609e-20 -1.4411308e-21 2.2732968e-24
000320 06 e3 45 19 3c 1d db 18 bb 8a 9e 19 22 a5 41 2f
       1.0230508e-23 5.6639692e-24 1.639285e-23 1.7611915e-10
000330 e6 84 7d 9f 18 eb 00 20 00 78 19 38 f7 88 4a 9c
       -5.3684765e-20 1.0919808e-19 3.65898e-05 -6.7013216e-22
000340 99 99 97 b7 e0 3f ab a6 8a 0f 00 b2 3b 93 84 1b
       -1.8072127e-05 -1.1882822e-15 -7.454114e-09 2.1932714e-22
000350 d9 51 0f 1f df 7e a6 2a e5 aa 2e ab 0e fb 0a 1c
       3.034913e-20 2.9575558e-13 -6.205438e-13 4.598485e-22
000360 c4 08 c9 b6 d0 d7 77 18 82 57 b5 1c ae cf 94 32
       -5.9912873e-06 3.203296e-24 1.2000196e-21 1.732391e-08
000370 7b b6 af 30 ee 2e b7 2f ae ba 8f a2 f1 d0 11 2a
       1.278479e-09 3.3320852e-10 -3.8957882e-18 1.2951078e-13
000380 8b 7b c0 2a 5c 55 8e a0 d7 f3 13 2f 05 36 7d 34
       3.4191776e-13 -2.4112222e-19 1.3456201e-10 2.3582113e-07
000390 e7 1d 84 a8 b4 5f 72 23 2e ef fd a2 15 99 a4 b3
       -1.4667912e-14 1.3139112e-17 -6.882903e-18 -7.6646906e-08
0003a0 1f 13 1f a0 5b 9b 83 9f 4b 17 ed 31 24 b4 a1 9e
       -1.347415e-19 -5.573767e-20 6.900256e-09 -1.7121042e-20
0003b0 46 05 35 9a 61 7c 06 a4 2a 6e 10 1b 84 ed cd 1d
       -3.7434183e-23 -2.916197e-17 1.1946997e-22 5.4508634e-21
0003c0 6b 35 b1 9a e3 a2 69 1d 7c 46 94 1d 3f c1 c2 a7
       -7.3291786e-23 3.0921504e-21 3.9248153e-21 -5.4055335e-15
0003d0 5f dc b5 96 a1 25 17 18 81 d8 06 a2 f0 c0 01 ae
       -2.93812e-25 1.953529e-24 -1.8275003e-18 -2.9502567e-11
0003e0 fb 57 08 1b 10 cc 3f b8 dc b3 c7 24 be 67 29 9b
       1.1278084e-22 -4.5727997e-05 8.6607187e-17 -1.4012873e-22
0003f0 a9 2a 8f 9d 92 09 11 20 e9 4f 22 a3 f0 9a 26 ac
       -3.7895894e-21 1.2285144e-19 -8.798959e-18 -2.3676026e-12

module.lstm.bias_hh_l0 f4 [512]
000000 e1 16 b4 32 f1 24 78 33 5c b6 21 bb c3 4a 84 39
       2.0965162e-08 5.7775598e-08 -0.0024675345 0.00025232704
000010 f1 80 90 9d ea e9 38 9f a1 d9 08 b6 07 7d 99 a2
       -3.8249805e-21 -3.9157005e-20 -2.0392256e-06 -4.160311e-18
000020 a3 ba b2 1c ca ed f4 32 70 77 d0 1d dc 40 40 19
       1.1827296e-21 2.8513472e-08 5.5180637e-21 9.9392656e-24
000030 ae c7 f3 1c 33 60 64 b1 62 3a c6 a2 08 b1 8b 35
       1.6132007e-21 -3.323305e-09 -5.3729823e-18 1.040783e-06
000040 42 ab 0a b8 2e 9d 4f a2 32 a0 c5 bc 25 98 e0 a1
       -3.306126e-05 -2.8136941e-18 -0.024124239 -1.5219103e-18
000050 51 e9 aa 36 eb ed ed a0 7c 9c 08 b7 4a a7 b5 2a
       5.0935564e-06 -4.0306803e-19 -8.142666e-06 3.226814e-13
000060 1b ad af 9a 7f cb 42 9e e3 e9 2c 38 ac a5 42 19
       -7.265797e-23 -1.03123565e-20 4.122582e-05 1.0063022e-23
000070 c1 2e e7 b2 9b c4 8f 20 91 00 f2 2c a0 3a 24 9b
       -2.69132e-08 2.4355245e-19 6.8781166e-12 -1.3584705e-22
000080 33 04 cd 1f d4 22 d9 2a 55 29 90 1e b4 cb bd b4
       8.6827824e-20 3.857111e-13 1.5263688e-20 -3.5352207e-07
000090 ee 0f 8a 19 f3 fd a5 99 96 b1 9a 27 0d d3 0f b9
       1.42753e-23 -1.716317e-23 4.2936126e-15 -0.00013716165
0000a0 bc 61 4f 29 ba 5a 27 9a 9f 36 67 b4 56 7b 92 b9
       4.6048004e-14 -3.460808e-23 -2.1533423e-07 -0.00027939182
0000b0 ad 2d 54 25 3a 57 94 9f 52 a6 56 9b c8 cf 96 99
       1.8403544e-16 -6.282474e-20 -1.7755406e-22 -1.5593559e-23
0000c0 dc 01 37 ac 99 40 9b 1e a8 31 0b 39 a0 3e 17 9f
       -2.6006896e-12 1.643798e-20 0.00013274571 -3.2027296e-20
0000d0 a6 e1 1a 23 6b 90 24 29 b4 62 f7 aa ed df 2d 36
       8.39614e-18 3.6540578e-14 -4.3944503e-13 2.590935e-06
0000e0 f8 d0 ec 9b 1f ca e9 1c ac 8c 11 b8 30 f4 c8 20
       -3.9177968e-22 1.5470894e-21 -3.4701705e-05 3.4042908e-19
0000f0 f5 3c c3 24 33 50 14 9e c6 dc 4a 34 77 22 b9 b9
       8.4671035e-17 -7.8516396e-21 1.8893033e-07 -0.00035311628
000100 93 e0 80 23 4b 60 0c 2c 60 64 c3 24 8c ef 5f 9a
       1.3972899e-17 1.994865e-12 8.473781e-17 -4.6308824e-23
000110 87 2d 62 19 94 19 36 9f 37 2f 02 38 71 28 ad 25
       1.169312e-23 -3.8561157e-20 3.1038388e-05 3.003812e-16
000120 87 91 bf 39 b3 76 7e 1a 92 b8 fd 18 11 fe 52 b6
       0.00036538785 5.2621853e-23 6.5585336e-24 -3.1440325e-06
000130 d8 bf 56 9b d8 f9 1b 9c 1e 8c d6 34 7b ad 20 99
       -1.7763653e-22 -5.1608113e-22 3.9962555e-07 -8.30684e-24
000140 a9 32 ac a2 41 49 23 a7 b3 d0 96 ab 63 1d 14 34
       -4.667433e-18 -2.2660505e-15 -1.0716067e-12 1.3794265e-07
000150 f6 25 47 1d c3 1d 16 ba b8 3e ab b7 99 29 9f a0
       2.6357056e-21 -0.0005726481 -2.0413994e-05 -2.6963175e-19
000160 ca 07 bc b6 b9 3e 90 1e d9 8f da 9c bf bd 6c 33
       -5.6037434e-06 1.5272535e-20 -1.4463214e-21 5.5120605e-08
000170 49 17 85 23 c2 0a 4b 36 f5 a6 dd a0 40 95 e5 aa
       1.442975e-17 3.025562e-06 -3.754934e-19 -4.0782135e-13
000180 1e 86 6a b1 21 bd d3 1f 20 e1 ae 2f 57 7c d3 a9
       -3.4127718e-09 8.9674863e-20 3.1810377e-10 -9.391852e-14
000190 07 86 5c b3 4a e0 6d 24 02 8c 18 24 ed 34 3f b5
       -5.134464e-08 5.1581163e-17 3.3078337e-17 -7.123006e-07
0001a0 af 73 02 a0 22 97 74 25 8d 71 ad 32 33 c5 58 9f
       -1.1049705e-19 2.1214832e-16 2.0191488e-08 -4.59029e-20
0001b0 ed eb 55 9d 49 48 80 a9 2b 08 39 9c 67 8e 07 1b
       -2.8312286e-21 -5.6968814e-14 -6.122192e-22 1.1212951e-22
0001c0 92 55 6e 17 da 36 ac b3 2e 5d 1f 34 18 c7 05 2c
       7.7009952e-25 -8.0193516e-08 1.4841928e-07 1.9010956e-12
0001d0 56 20 0d 34 f1 3c 1c 1a a8 67 50 a3 e0 55 59 a9
       1.3143412e-07 3.2309272e-23 -1.1297653e-17 -4.8258164e-14
0001e0 fd dd d8 9c 7d a7 b6 1a de 96 18 9f 5d 24 a8 b4
       -1.4351064e-21 7.554403e-23 -3.2312046e-20 -3.1318896e-07
0001f0 b1 fd be b8 c0 7f 45 b2 df 46 fe a4 16 ee be b1
       -9.10716e-05 -1.1495956e-08 -1.10275e-16 -5.556795e-09
000200 70 df a9 19 c8 7c 8f 22 5c a1 78 9c b2 f2 99 9c
       1.7564436e-23 3.8892345e-18 -8.226487e-22 -1.0187426e-21
000210 b9 e5 83 1f 70 cb 5a 1e d0 8d 31 9c 33 8e db 22
       5.58607e-20 1.1582894e-20 -5.8747676e-22 5.951063e-18
000220 50 65 00 1c 0b a0 ba 31 10 9c 64 20 7e 66 9a 98
       4.248259e-22 5.4315072e-09 1.9363988e-19 -3.9911558e-24
000230 5a 07 51 af b3 50 37 b3 7d 44 00 b9 05 50 8e b3
       -1.9011051e-10 -4.2681403e-08 -0.00012232545 -6.626946e-08
000240 01 9a 44 1d 45 fb 17 20 f9 64 dc 9b 50 8b 1c 20
       2.6020002e-21 1.2873336e-19 -3.64612e-22 1.3259809e-19
000250 4c 78 ac b5 dc 73 a9 9e 47 08 83 19 46 03 c3 19
       -1.285001e-06 -1.794149e-20 1.3548426e-23 2.016385e-23
000260 99 38 78 9d 60 55 79 22 20 d5 15 31 e4 0c 25 99
       -3.2851787e-21 3.379099e-18 2.1803501e-09 -8.532903e-24
000270 dd 15 79 b2 ae c2 21 9c 2c 30 0e b5 7e cd 08 19
       -1.4498679e-08 -5.352205e-22 -5.296922e-07 7.072534e-24
000280 c2 ea 2a 1f cd 40 27 aa 27 20 49 98 4a fc 4b b2
       3.6193087e-20 -1.4855062e-13 -2.5994874e-24 -1.1873519e-08
000290 a3 da d9 9c ba 59 83 1d 38 bc bf 25 fc cf 5a b4
       -1.4416372e-21 3.4768186e-21 3.326076e-16 -2.0378496e-07
0002a0 8f f0 d4 a8 7f ff a7 1d c9 0a 34 b1 9f 2f 8b 9d
       -2.3641054e-14 4.446871e-21 -2.6199578e-09 -3.6842233e-21
0002b0 f1 85 8a 22 d8 89 60 1f 1b c9 95 19 32 f3 33 9c
       3.754679e-18 4.7547867e-20 1.5487465e-23 -5.9540454e-22
0002c0 3c 84 5d ac 8a fd 3d 1b b5 5c b7 2d 56 a2 69 1d
       -3.1479394e-12 1.5715636e-22 2.0845861e-11 3.0921219e-21
0002d0 2d 06 19 19 f3 22 15 a8 ea f8 65 aa 0a e8 50 9e
       7.911162e-24 -8.27874e-15 -2.0425645e-13 -1.1059413e-20
0002e0 b6 4a b4 9a e1 80 8f 1f 83 ef 40 22 b1 f7 7e a0
       -7.456696e-23 6.077607e-20 2.6147649e-18 -2.1596591e-19
0002f0 4a be 1b 2e f6 4d a7 9f 35 f5 68 a9 67 6b 7b 1f
       3.541193e-11 -7.0856227e-20 -5.172703e-14 5.324016e-20
000300 80 5c 67 a4 61 c5 7b a1 2c fd 64 24 f4 64 53 b9
       -5.016849e-17 -8.5303337e-19 4.9654064e-17 -0.00020160136
000310 9c 18 b6 99 54 b5 18 20 21 08 f1 9c e9 93 36 9a
       -1.8828299e-23 1.2934897e-19 -1.5950143e-21 -3.77562e-23
000320 f6 9c c9 98 b0 d8 9d a0 0a 69 93 9d d4 c0 0f 2f
       -5.2115772e-24 -2.6740226e-19 -3.9019184e-21 1.307428e-10
000330 a1 3d 2a 1f d4 6c a0 9a 81 f1 19 b8 b5 ed 2b 1b
       3.604988e-20 -6.635027e-23 -3.670296e-05 1.4221596e-22
000340 30 c5 0b b7 b2 4c be a6 f5 10 34 b2 90 c6 42 9b
       -8.330957e-06 -1.3204687e-15 -1.04812345e-08 -1.6111463e-22
000350 db b5 06 19 f7 48 81 aa 2b 3c 24 ab 8d 74 82 9d
       6.964363e-24 -2.2965633e-13 -5.8348004e-13 -3.4531224e-21
000360 fc c4 e3 b6 c7 ce 9a 9c 43 63 91 1c ac 68 3d 32
       -6.788059e-06 -1.0244316e-21 9.620954e-22 1.10250475e-08
000370 a1 4a a3 30 65 3a c3 2f 09 12 09 23 e7 40 c5 2a
       1.1881022e-09 3.5511785e-10 7.430604e-18 3.5039265e-13
000380 42 2a 39 2c ef 3f 60 a0 6d 3f 06 2f e0 82 d2 34
       2.631354e-12 -1.8994692e-19 1.2209762e-10 3.9210772e-07
000390 94 6a 1d a8 b7 c9 48 21 68 59 50 23 f8 1e a2 b3
       -8.738361e-15 6.8029603e-19 1.1294635e-17 -7.549346e-08
0003a0 2d af e9 9c 42 e5 10 9e 24 c6 2f 32 72 4a a1 1e
       -1.5463928e-21 -7.670706e-21 1.0231393e-08 1.7077328e-20
0003b0 d4 28 09 a0 83 c5 78 24 fe 4d 83 9f a7 ea 58 1b
       -1.161786e-19 5.3943727e-17 -5.5609685e-20 1.7942921e-22
0003c0 9b ac 60 1d 32 ec 2f 9d 49 b8 86 9f 7b c4 9b 27
       2.9735388e-21 -2.3283167e-21 -5.705608e-20 4.3234167e-15
0003d0 ca 87 b6 9c e1 fe 7f 9d e8 5d d9 a0 98 e9 bd ad
       -1.207885e-21 -3.3880738e-21 -3.6823372e-19 -2.1590549e-11
0003e0 39 42 a9 9a e6 d7 3a b8 1e 5b a8 a2 44 75 ad 9a
       -7.000375e-23 -4.4546927e-05 -4.5632965e-18 -7.1740576e-23
0003f0 8f f7 a6 9d 17 13 86 1d 08 76 08 23 8a 79 84 aa
       -4.4195804e-21 3.5489243e-21 7.397569e-18 -2.3532245e-13

module.lstm.weight_ih_l1 f4 [512, 128]
000000 94 d4 08 3d 40 b3 5d bd 70 ee 73 bd 57 df e8 3d
       0.033405855 -0.054126024 -0.059553564 0.11370724
000010 35 c4 e2 3c b8 73 62 a1 6b 15 91 3d ec 54 18 39
       0.02768145 -7.672493e-19 0.07084163 0.00014527485
000020 e3 5e 82 9d b4 ff 68 36 a3 3c 90 a0 98 c6 8b 33
       -3.4508824e-21 3.4719533e-06 -2.4434675e-19 6.508816e-08
000030 0d b3 c1 bb 80 a9 16 34 b9 d5 9f bd 18 fc f3 ba
       -0.005911237 1.4031502e-07 -0.07804436 -0.0018614559
000040 cd 63 aa 3a d5 70 ac 37 9d cb 06 bd b0 1d 4e bc
       0.0012999714 2.055654e-05 -0.032909025 -0.01258032
000050 35 d0 17 38 37 6b d9 3c da 09 a9 3a c0 bf c2 3c
       3.6195113e-05 0.026540382 0.0012896613 0.023773074
000060 b6 4e ac 36 95 2b 30 a6 7a 55 2e bc 6f 10 6b 9c
       5.1351626e-06 -6.112133e-16 -0.010640496 -7.777622e-22
000070 b6 3f 07 31 ba 12 fa 3b 42 e0 18 bc 2d 99 3a 3c
       1.96813e-09 0.007631627 -0.009330811 0.011389059
000080 23 f2 93 a0 06 71 0d ab 22 43 ea ad e5 13 b0 bb
       -2.5063e-19 -5.0250114e-13 -2.6632533e-11 -0.0053734654
000090 0b 91 3e 3a 36 1c bf 20 f2 df 3c bd f3 3c 20 3d
       0.0007269538 3.2375327e-19 -0.04611201 0.039120626
0000a0 e0 bd 03 30 12 ea a8 a8 98 22 6b bd 31 21 72 3c
       4.792735e-10 -1.8753259e-14 -0.057406038 0.014778421
0000b0 a6 85 ee bc 2d 32 0a a2 96 7e 23 3b a0 c8 a3 37
       -0.029116463 -1.872905e-18 0.0024947277 1.9524537e-05
0000c0 08 f5 14 af a1 51 14 bb 8c 02 fc 3c 4b 33 66 ba
       -1.3547574e-10 -0.0022631662 0.030762933 -0.0008781447
0000d0 70 82 5e bd cb 8a bc ae 7b 56 8b 3c 74 84 c6 3b
       -0.054323614 -8.573905e-11 0.01700901 0.00605827
0000e0 8e 0a 2c b9 51 e5 6c 3c 26 59 59 36 a6 ac c8 21
       -0.0001640713 0.01445897 3.238741e-06 1.3598227e-18
0000f0 fb 20 aa 39 8e a8 07 38 cd 9c 30 bd 5e 2b a7 bd
       0.000324495 3.2343487e-05 -0.043118287 -0.081625685
000100 a0 f9 d9 3c 5c ef 08 3d 05 1c 91 2f 8f 21 0b 3c
       0.026608288 0.033431396 2.6395255e-10 0.008491888
000110 bd e8 ce bc 36 93 85 3a 47 fa 9b 3c c7 23 6b b9
       -0.025257463 0.0010190967 0.01904024 -0.00022424675
000120 58 04 ae bc 1b 5d 8f 3a 98 13 85 33 e8 3e dd bc
       -0.021242306 0.0010937782 6.196859e-08 -0.027007535
000130 91 73 34 b7 0c 49 a0 3d 85 19 20 3d 0d e6 01 bc
       -1.07557435e-05 0.078264326 0.039086837 -0.007928384
000140 6e b8 9f 3d 84 29 ec 2a 87 d7 94 bc 63 33 ee 3c
       0.07798849 4.195083e-13 -0.018169178 0.029077237
000150 2c 3b c8 a5 fd 0f 46 ba 12 41 67 ba df 79 58 37
       -3.4734566e-16 -0.0007555483 -0.0008821647 1.2902979e-05
000160 5d 55 92 39 a2 5d ab 3c f6 fc 83 3d 25 5c 3f b5
       0.0002791089 0.020918671 0.06444733 -7.128713e-07
000170 a7 64 18 bd d4 21 92 bd ad 1e b1 3c b5 46 07 ad
       -0.037205365 -0.071353585 0.021621073 -7.689562e-12
000180 45 8d 6a bd 8f 39 64 bc 66 79 a6 34 08 0d db 3c
       -0.05726363 -0.013929739 3.1008238e-07 0.026739612
000190 a7 b7 93 bd f3 04 e1 25 91 26 25 25 de 03 3c b6
       -0.07212763 3.9034632e-16 1.4324535e-16 -2.8016434e-06
0001a0 ce a5 55 2a 03 af 50 bc 13 ef 4f 3c f2 4d 9d bd
       1.8975725e-13 -0.012737039 0.012691277 -0.076808825
0001b0 10 84 9c 3d 9f 4f a7 3d 27 cc af a1 35 9e 48 37
       0.076423764 0.081694834 -1.19125e-18 1.1957764e-05
0001c0 32 67 b0 3a 5b 59 43 bd 3b 86 69 bd da 71 81 b8
       0.0013458489 -0.047692638 -0.057012778 -6.172406e-05
0001d0 72 98 c1 bd c3 0c 8e bd b6 27 8d a5 e5 87 cd 3c
       -0.09452905 -0.06936028 -2.448651e-16 0.025089214
0001e0 ec 0a d0 3c 26 07 74 bd 92 c6 3a 3c 70 03 15 bc
       0.025395833 -0.05957713 0.011399882 -0.009095058
0001f0 0c 77 0e 3c 0c 91 df 3a 1b d6 dc 39 ef 37 2f 3d
       0.008695375 0.0017056777 0.0004212119 0.04277795
000200 3b 8b fe 3c 83 60 fe 3c f1 ec 64 3c 7d 97 07 bd
       0.03107225 0.03105188 0.013972507 -0.033103455
000210 ab 50 76 3d c9 47 a5 a1 05 24 cb bc 08 32 04 30
       0.060135525 -1.1199836e-18 -0.024797449 4.809242e-10
000220 7f c0 26 99 f5 ee c7 34 cc 6d 00 21 93 2f bf 23
       -8.620873e-24 3.7240503e-07 4.35134e-19 2.072841e-17
000230 94 83 5d 3d 75 c5 80 32 91 a7 8e bc 66 e9 19 b9
       0.05408056 1.4990954e-08 -0.017413886 -0.00014678165
000240 b4 5d 5e bd 2f 3d 54 30 c8 45 96 bd b1 26 3c bd
       -0.05428858 7.72121e-10 -0.073375285 -0.045935337
000250 29 fb 66 b5 2b 47 2d 3d 53 6b a9 3b 2c 96 4f bc
       -8.6047163e-07 0.0423042 0.0051702647 -0.012670081
000260 7e 1d 32 30 3e 68 bd a5 9b d1 56 bd 03 56 80 99
       6.4797934e-10 -3.285691e-16 -0.05244599 -1.326963e-23
000270 30 01 47 b2 dc 7f 9c b9 eb de 95 bc dd 9c ca ba
       -1.15835945e-08 -0.000298499 -0.018294772 -0.0015458126
000280 1f da f9 a2 6e 1a 9e a9 bf 9c a2 20 a5 ab 69 ae
       -6.772253e-18 -7.021194e-14 2.7547593e-19 -5.3130517e-11
000290 03 f7 8f b8 66 9d 9c 20 e2 e2 9c bc ec 58 7a bc
       -6.864781e-05 2.6531586e-19 -0.019151155 -0.01527999
0002a0 3e df c8 2d 4a 38 ff 1f e3 43 ed 3c a8 cd e6 3b
       2.2836507e-11 1.0808982e-19 0.028963035 0.007043559
0002b0 05 3e 96 3d d2 41 8c 21 33 79 9c 2a bf da d9 af
       0.07336048 9.504192e-19 2.7795266e-13 -3.9627499e-10
0002c0 d7 5e 9b 2d 2e 7b 91 bd b3 71 3b 3b 6f 5f 0d ba
       1.7663577e-11 -0.07103573 0.0028601706 -0.0005392944
0002d0 5d ec 29 bc 01 f6 5c af cf 50 a4 3b aa bc 12 bd
       -0.010371295 -2.0096282e-10 0.005014516 -0.035824455
0002e0 1b 26 ea b5 ea 43 8a 3d 53 3e f3 33 13 85 de 9e
       -1.7445449e-06 0.06751235 1.1326906e-07 -2.3560202e-20
0002f0 48 86 96 b7 07 b8 50 35 9c b7 96 bc a4 3f 9f bd
       -1.7943923e-05 7.7753833e-07 -0.018398099 -0.0777581
000300 6c 16 43 3c 7c d3 28 3c 48 96 bd 2e c1 d4 6e bd
       0.011907201 0.010304328 8.62142e-11 -0.058308367
000310 4a 6c fb 3c d0 24 c0 3b 4c 89 49 3b e3 81 26 b4
       0.030691285 0.0058637634 0.0030752001 -1.5507207e-07
000320 24 f0 94 3d 59 dd a1 b9 56 d6 a1 9e 1f c2 85 bd
       0.07272366 -0.0003087323 -1.7135185e-20 -0.06531166
000330 e4 5d d7 b2 db 83 e1 bb 74 da 90 3d 81 67 c4 3a
       -2.507199e-08 -0.0068821735 0.070729166 0.001498446
000340 55 ee e4 bc 2f 60 ca a9 18 2f 89 bc 62 bb a2 3d
       -0.027945677 -8.987287e-14 -0.016746089 0.07945897
000350 ea 0c 2f 1a f3 46 16 bc a5 ec b4 b9 ad 60 42 34
       3.6199584e-23 -0.009172189 -0.0003450859 1.8102828e-07
000360 a9 80 aa 38 e7 88 9a bc 4a 4e 60 3a 25 c9 98 b4
       8.1301965e-05 -0.018864108 0.0008556588 -2.8458558e-07
000370 c3 70 c9 3c a9 b2 1c bd cb 14 e1 3b c3 14 b7 28
       0.024589902 -0.03825632 0.006868934 2.0326085e-14
000380 8e 50 30 3d cf c1 9f 3b 7f af 03 34 f4 e6 88 3c
       0.043045573 0.0048753987 1.2264171e-07 0.01671169
000390 85 d7 1f 3d 45 55 64 25 d3 25 b0 a5 fd c9 f5 b4
       0.039023895 1.9804738e-16 -3.0556764e-16 -4.5781772e-07
0003a0 b3 b5 57 af 2d d3 0f bc e3 27 2d 3c fb ab 7a bd
       -1.9618689e-10 -0.008778376 0.010568592 -0.06119917
0003b0 aa be 88 3c 42 ce 27 3d bb 23 4a 1a f3 aa 2c b2
       0.016692478 0.040968187 4.1801484e-23 -1.0050587e-08
0003c0 d0 6c 72 3b ba 9d 79 3c 7b 0c 93 bb 73 8c 45 2c
       0.0036991127 0.015235359 -0.004487572 2.8073349e-12
0003d0 0f 91 5d bd c0 d9 89 bd 30 63 1f 23 ca 08 ef bb
       -0.054093417 -0.06730986 8.640411e-18 -0.007294749
0003e0 b3 5c 8f bd fd c3 be bb 4c 07 1e 3d bd 53 80 bd
       -0.07000103 -0.0058217035 0.038581178 -0.06265972
0003f0 50 cb 2c 3b 9a e0 47 ba b7 72 0d b3 0d e0 b7 3b
       0.00263663 -0.0007624716 -3.2933453e-08 0.0056114257

module.lstm.weight_hh_l1 f4 [512, 128]
000000 9a cb 28 bc bc be 46 bc b7 8c 55 3d d4 90 ea 3b
       -0.010302449 -0.012130436 0.05213615 0.007158378
000010 b2 eb ac 3c e4 17 0a bd 2b f0 12 3c ae 43 85 3d
       0.021108482 -0.03371419 0.008968393 0.065070495
000020 fb 95 03 bb 73 b3 e8 3c 88 de 3c 3d 86 57 07 bd
       -0.002007841 0.02840588 0.04611066 -0.033042453
000030 ee 1e fb 3c 14 67 cd bc 36 6a b6 3b 30 28 15 bd
       0.030654397 -0.025073566 0.0055668605 -0.03641528
000040 a3 b7 00 3d 34 dd 2b bd 45 99 3b bd 0a 66 3c 3d
       0.03142513 -0.041959003 -0.045800466 0.04599575
000050 58 b3 95 bc e0 43 06 bd f2 32 84 3c ff 3c 8e bd
       -0.018273994 -0.032779574 0.016137574 -0.06945228
000060 68 08 b4 3c 36 a1 60 bd 49 e4 7d 3d a9 dc 6c bd
       0.021976665 -0.054841243 0.061985288 -0.057827625
000070 c6 45 12 bd fb e9 72 3d 14 14 45 3b 11 79 11 3d
       -0.035711072 0.059305172 0.0030071782 0.03551585
000080 36 21 05 bd 7d db 8f 3c 18 e6 76 3d 38 88 ee bc
       -0.032502376 0.017560715 0.06027803 -0.029117689
000090 28 37 df bc 22 7a f2 bb 25 a2 0c bc 69 6f 72 3d
       -0.02724798 -0.0073998133 -0.00858358 0.05918828
0000a0 44 bb 91 bd ee a0 fb bc a8 b2 f8 bc 0a f5 16 bd
       -0.07115796 -0.030716386 -0.030358627 -0.03685478
0000b0 5c e7 cd bb fb 5e 2c 3d cc 18 9a bc 8e d6 64 bc
       -0.0062836837 0.042082768 -0.018810652 -0.013967169
0000c0 d0 88 1f 3d 06 b1 0d 3a 6d b7 80 bd bc 8c c4 3c
       0.038948834 0.00054051017 -0.06284986 0.023992889
0000d0 ee 23 a5 bc 01 e3 b5 3a 72 aa a5 3c 24 c1 66 bd
       -0.020158734 0.0013876857 0.020222876 -0.056336537
0000e0 89 7e 1b 3d ee 97 44 3d ee 17 e0 bc 2f 21 a1 bd
       0.03796247 0.047996454 -0.02735516 -0.078676574
0000f0 9e b6 09 bd f4 7d 56 bc 73 ab 6e 3c 4d c4 e9 bc
       -0.033621423 -0.013091553 0.014567244 -0.028535986
000100 f6 f9 82 3d d4 83 8c 3b 1e 0d fc bc 83 5e 58 3c
       0.063953325 0.004288176 -0.030767974 0.013206127
000110 64 61 15 3d e2 b9 73 bc 0d 7a 70 3c 5c 3b 35 bc
       0.036469832 -0.014875861 0.014677537 -0.011061516
000120 c3 a6 81 bc 23 7a 9c 3c fc bc 78 bd 1f 90 01 3d
       -0.015826588 0.019101208 -0.060727105 0.031631585
000130 1d 27 63 ba 4e 1e 14 bd a8 05 8e 3d 0f 03 bd bc
       -0.0008665191 -0.036161713 0.069346726 -0.023072748
000140 0e 0b d5 3c 5e 4f 03 bd 12 d4 e9 ba e3 b5 96 3d
       0.026006248 -0.032058112 -0.0017839691 0.07358911
000150 62 3a 78 3d 78 4a 2c bd 09 e2 80 3d b4 01 5a bc
       0.060602553 -0.042063206 0.06293113 -0.01330607
000160 1d e7 82 3d 33 19 8b bd 74 33 0c 3d 44 e4 47 bb
       0.063917376 -0.06791916 0.034228757 -0.0030501047
000170 77 c5 39 bd b3 78 21 3a 03 58 05 3d 60 93 05 bd
       -0.045354333 0.0006159648 0.032554638 -0.03261125
000180 02 c5 71 bd a9 37 3c 3b 95 9a 91 bd 5c 56 8e 3c
       -0.059025772 0.00287197 -0.07109562 0.017375164
000190 61 a3 9a bd c6 fa d6 bb 69 40 e4 3c 53 9a 67 3d
       -0.07550693 -0.0065606562 0.027862744 0.05654366
0001a0 d2 97 1d 3d d0 e0 c1 bc be a0 35 3d 4d ee 85 bd
       0.038474865 -0.02366677 0.04434275 -0.06539593
0001b0 b4 3d 70 3d 06 b4 5b 3c 70 ce 11 3c c6 e1 7a bd
       0.058652595 0.01340962 0.008899316 -0.06125047
0001c0 12 1a 10 bd 6c ec 83 bb ed 40 5b bd be 80 70 3a
       -0.035181113 -0.0040259864 -0.053528715 0.00091744575
0001d0 2c e2 5e 3d 15 8d 45 3a c2 a2 19 3d d0 59 42 bd
       0.054414913 0.00075359765 0.037508734 -0.047448933
0001e0 90 05 98 bc bb d9 2b bc 6d 62 97 bd 52 d5 ad 3a
       -0.01855734 -0.010488923 -0.0739182 0.0013262427
0001f0 74 0f 63 3c e0 35 06 3d fa 0a 0e 3c b1 1d 87 3c
       0.013858665 0.032766223 0.008669609 0.01649365
000200 9a 7b 92 bc 97 89 56 39 5e b9 3b bd 23 2e fb bc
       -0.017881203 0.00020459887 -0.045831077 -0.030661648
000210 73 ad 95 3a b0 88 cd bc 1c 04 84 bb bb 97 72 bc
       0.001141949 -0.025089592 -0.00402881 -0.014806683
000220 9c a3 a8 3a 04 20 35 bb 69 0b b5 3b 2f 6d 6f bc
       0.0012866142 -0.002763749 0.005525042 -0.014613434
000230 fa ec ef bb 0c 0e dd 3b f6 86 21 3c b2 d3 82 3c
       -0.007321951 0.0067460593 0.009858837 0.015970085
000240 92 e1 0e bd 96 69 c7 3b eb 1f 1d bd 7d 1d 7e bd
       -0.03488309 0.006085585 -0.038360517 -0.06203984
000250 b5 45 ac bc 7c e4 ba 3a 8b 1b 25 bc 1a 44 44 3d
       -0.021029333 0.0014258767 -0.010077368 0.04791651
000260 f1 56 71 bc 48 15 01 bd 96 97 52 bd 6a 09 69 3d
       -0.014730201 -0.031514436 -0.051414095 0.056893744
000270 67 1f 0c 3d df ab 7c 3c 5e 4c 3c 3c 3c e9 3d 3d
       0.034209635 0.015421837 0.011492817 0.046365008
000280 40 35 a2 3c f4 bd 4e 3b 05 49 2b bc 40 0a f4 38
       0.019800782 0.0031546326 -0.010454421 0.00011636736
000290 1a 6a ac 3c d1 44 a9 bc 06 94 14 bc 9c 47 0f bd
       0.021046687 -0.020662697 -0.009068495 -0.0349804
0002a0 7f 92 15 bd 3b 4f 05 3d b6 91 ad bb bf e9 88 3c
       -0.036516663 0.032546263 -0.005296911 0.016713021
0002b0 8c 6d cf bc 27 b1 c5 b9 f1 4e 6c 39 09 1c 72 3b
       -0.02532079 -0.00037706757 0.00022536122 0.003694298
0002c0 e4 d6 dd 3b f8 e6 04 bc ba ba 03 bd 51 ec 97 ba
       0.0067700017 -0.008111708 -0.0321605 -0.0011590814
0002d0 9c 97 b2 bb 60 1a 20 3c 61 a5 d3 bb 3c 6a 07 3c
       -0.005450202 0.009771913 -0.0064589237 0.008265074
0002e0 b3 02 b1 3b 73 16 10 3d f3 f4 0b 3c 78 c3 e6 bc
       0.005401933 0.03517766 0.008542287 -0.028169379
0002f0 4a 87 0c 3d f8 7f 84 3c bb 47 a0 bc e9 08 62 3c
       0.03430871 0.016174302 -0.019565454 0.01379607
000300 01 67 a4 3c 39 a8 0e 3d 56 35 66 bd 43 02 d5 bc
       0.020068647 0.0348284 -0.05620321 -0.026002055
000310 36 7a 32 3b 90 9d b6 39 0a 94 a0 3a aa 63 0b b9
       0.0027233488 0.00034831138 0.001225115 -0.00013293201
000320 3c 04 1f bc 9c cd e8 bc 08 85 01 bd 79 9e 2e 39
       -0.009705599 -0.028418355 -0.03162101 0.00016652969
000330 08 54 82 39 06 c2 57 bc 22 c7 fa 3c 22 06 d6 bb
       0.0002485814 -0.013168817 0.030612532 -0.006531493
000340 ad 83 f6 bc 1f 28 33 3d 62 60 ae 3b a5 20 58 bc
       -0.030092085 0.043739434 0.0053215483 -0.013191377
000350 48 55 41 bd 58 e8 cd bc ff 73 24 3c 05 19 4c bc
       -0.04720047 -0.025135204 0.010037421 -0.012457137
000360 39 fe a9 3c 23 6a c1 3c 9d 59 b0 3b ee a9 29 bd
       0.020751106 0.02361018 0.0053817765 -0.041421823
000370 c8 3c 2f bd a2 a6 7e 3a 71 1e 40 3c 18 ff 92 3c
       -0.042782575 0.0009714161 0.011726008 0.017943904
000380 47 92 59 bd 8d 8d 82 3d 4e 0b 9b bc 7b d9 19 bc
       -0.053118017 0.06374655 -0.018926289 -0.00939023
000390 1e d7 06 bc 7f 6e 42 3d 1c 4e 48 3d 32 d3 43 bd
       -0.008229999 0.04746866 0.048902616 -0.047808833
0003a0 ad 0e c6 bb 32 aa 31 bb 43 2c 6e bd 7d 6b 3d bd
       -0.00604423 -0.00271095 -0.05814768 -0.046245087
0003b0 74 1d 84 bc af 42 a1 3c 1a 98 81 3b dc 80 62 bb
       -0.016127326 0.019685118 0.0039548995 -0.003456167
0003c0 22 b4 aa ba 8c 29 4d bb 17 e2 db 3c b7 01 93 3b
       -0.0013023654 -0.0031305281 0.026841206 0.0044862884
0003d0 22 4d f7 37 29 f4 a0 3b 92 23 07 bd 4b cd d5 3c
       2.9480612e-05 0.0049119187 -0.032992907 0.026098868
0003e0 c8 5e 00 3c 6d c2 27 3d 22 30 26 3c c1 2c 94 3c
       0.007835098 0.040956903 0.010143312 0.018087747
0003f0 22 f8 4c 3b 52 08 be 3c 15 25 cc 3c 50 30 21 bc
       0.0031275828 0.023197327 0.024920026 -0.009838179
