btc_predict_conv/checkpoint/lstm/btc_pv15min/model_lstm.pth (torch, 807690 bytes, 9 tensors)

module.lstm.weight_ih_l0 f4 [512, 5]
0	0x3209679e	7.998009e-09
1	0xab0183fc	-4.601317e-13
2	0x32114ef1	8.45806e-09
3	0x321b73db	9.04853e-09
4	0x3212d349	8.546359e-09
5	0xbcd98eec	-0.026557408
6	0xbb54b6b5	-0.0032457535
7	0xbcd8405e	-0.02639788
8	0xbcd98be3	-0.026555961
9	0xbcd97f0f	-0.026549844
10	0xbd87100e	-0.06594859
11	0x20801acc	2.1701776e-19
12	0xbcbc509f	-0.022987662
13	0x3cd310d1	0.025764855
14	0x3d377304	0.04478742
15	0xbb683fbb	-0.0035438377
16	0xb649eec7	-3.009032e-06
17	0xbb690c7a	-0.0035560415
18	0xbb689184	-0.0035487125
19	0xbb696e05	-0.0035618555
20	0xba105477	-0.00055057503
21	0x375cfd81	1.3172045e-05
22	0xba11be0d	-0.0005559631
23	0xba1403c9	-0.0005646316
24	0xba126027	-0.0005583786
25	0xbc6afaf6	-0.01434206
26	0xb9f6440f	-0.00046971484
27	0xbc6bbe3f	-0.01438862
28	0xbc6d3ac6	-0.014479345
29	0xbc6c5c44	-0.014426295
30	0xbc93c66a	-0.018038947
31	0x3ca5cf20	0.020240366
32	0xbd83f5db	-0.064433776
33	0xbb8001fa	-0.0039064856
34	0xbd1e6627	-0.03867164
35	0x3be126fb	0.006871102
36	0x3d18541b	0.037189584
37	0x3d16caee	0.036814623
38	0xbaf494da	-0.0018660084
39	0xbd212929	-0.039345894
40	0xa4451b01	-4.274044e-17
41	0x0030b754	4.47387e-39
42	0xa46f3dd3	-5.187723e-17
43	0xa480880f	-5.5741643e-17
44	0xa45e22e9	-4.8168147e-17
45	0xba2b7b4a	-0.0006541504
46	0xb822362d	-3.8674265e-05
47	0xba2a70af	-0.00065017765
48	0xba2d0db1	-0.00066014664
49	0xba30be5d	-0.00067422335
50	0xbc5f154a	-0.013615916
51	0xb2c225ce	-2.2601764e-08
52	0xbc5fb97a	-0.013655061
53	0xbc6098c5	-0.013708298
54	0xbc600abb	-0.013674433
55	0xbbcc3502	-0.006231905
56	0xab18c144	-5.426946e-13
57	0xbbcd1ddc	-0.006259663
58	0xbbcd3bd1	-0.006263234
59	0xbbcc79e0	-0.0062401146
60	0x3cce7f42	0.025207166
61	0x3c6e1563	0.014531466
62	0x3d10b155	0.035325367
63	0xbd26e48a	-0.040745296
64	0x3b880b7c	0.0041517597
65	0xbb23cfdf	-0.0024995727
66	0xa817a6dc	-8.418366e-15
67	0xbb258213	-0.0025254532
68	0xbb260e43	-0.002533809
69	0xbb24749a	-0.0025093914
70	0xbce0cb85	-0.027440796
71	0xbb8f5af1	-0.0043748547
72	0xbce0d8c9	-0.027447121
73	0xbce0f123	-0.027458733
74	0xbce0d556	-0.027445477
75	0xbcf07e92	-0.029357228
76	0xbc2772a8	-0.010220207
77	0xbcf0e7cb	-0.029407403
78	0xbcf14375	-0.029451111
79	0xbcf0cc7f	-0.029394386
80	0x002f8182	4.362727e-39
81	0x8037264a	-5.064688e-39
82	0x000206b5	1.86077e-40
83	0x0020b635	3.0041e-39
84	0x000210bb	1.89673e-40
85	0xbcd86ff1	-0.026420565
86	0xbcd81edc	-0.026381902
87	0xbcd845fd	-0.02640056
88	0xbcd7fdd5	-0.026366154
89	0xbcd866ae	-0.026416149
90	0xba6a0983	-0.0008927809
91	0xb7e4a962	-2.7258593e-05
92	0xba6e6c79	-0.0009095143
93	0xba733b98	-0.00092785945
94	0xba6e21f2	-0.0009084038
95	0x8038eb91	-5.227293e-39
96	0x00367305	5.000378e-39
97	0x0041534d	5.99919e-39
98	0x0044cade	6.317589e-39
99	0x8011eec6	-1.646859e-39
100	0x804c41a2	-7.003042e-39
101	0x0040861d	5.925583e-39
102	0x804e7ccb	-7.207936e-39
103	0x804ccc93	-7.052885e-39
104	0x8035c01f	-4.936201e-39
105	0xba0f3855	-0.0005463411
106	0x362d27da	2.5802206e-06
107	0xba112390	-0.000553661
108	0xba13bbbc	-0.00056355796
109	0xba11857b	-0.0005551201
110	0x3ce7aa40	0.028279424
111	0x3cc9da6b	0.024640283
112	0x3ce7d205	0.028298387
113	0x3ce8086b	0.028324327
114	0x3ce7e290	0.028306276
115	0xbcb59288	-0.022164598
116	0xba8dfc50	-0.0010832641
117	0xbcb5e2cb	-0.02220287
118	0xbcb623dc	-0.022233896
119	0xbcb5d842	-0.022197846
120	0xbd0186e5	-0.031622786
121	0xbce47248	-0.027886525
122	0xbd018b0f	-0.031626757
123	0xbd017430	-0.031604946
124	0xbd0175c1	-0.03160644
125	0xbc8c0ee9	-0.017096953
126	0xba7f4642	-0.0009737947
127	0xbc8c2020	-0.017105162
128	0xbc8c33f4	-0.017114617
129	0xbc8c4a50	-0.017125279
130	0xbb803763	-0.0039128526
131	0x320b021f	8.091347e-09
132	0xbb807c00	-0.003921032
133	0xbb80a2b8	-0.0039256476
134	0xbb806476	-0.003918226
135	0xbbcbe1e5	-0.006221997
136	0xba7c5964	-0.00096263574
137	0xbbc956e4	-0.0061443914
138	0xbbc97158	-0.006147545
139	0xbbcb191c	-0.0061980616
140	0xbac3ab8e	-0.0014928447
141	0xa7149965	-2.0622281e-15
142	0xbac40f02	-0.0014958086
143	0xbac52ae9	-0.0015042695
144	0xbac4b464	-0.0015007374
145	0x2bdabf37	1.5542904e-12
146	0xab0de954	-5.041707e-13
147	0x2bd64e54	1.5227355e-12
148	0x2bd227c5	1.4932436e-12
149	0x2be5a0d5	1.6316069e-12
150	0xbc02cfa6	-0.007984078
151	0xb2cba4e0	-2.3707287e-08
152	0xbc0341c3	-0.008011284
153	0xbc03d2fd	-0.008045909
154	0xbc03551e	-0.008015899
155	0xbcf5906d	-0.029976094
156	0xbbb07bf9	-0.0053858724
157	0xbcf590b3	-0.029976225
158	0xbcf59950	-0.029980332
159	0xbcf5a0d8	-0.029983923
160	0x3c017191	0.0079006115
161	0x2f44ff56	1.791681e-10
162	0x3c01ff61	0.007934422
163	0x3c0c3c65	0.008559321
164	0x3c024c94	0.007952828
165	0xbcf78833	-0.030216312
166	0xbaf75419	-0.0018869668
167	0xbcf79a64	-0.030224986
168	0xbcf763c4	-0.03019894
169	0xbcf78771	-0.03021595
170	0x20b715a9	3.101574e-19
171	0x9de98539	-6.1812335e-21
172	0x20b8c3b1	3.130031e-19
173	0x20c0e688	3.2678618e-19
174	0x20b5e5ff	3.0814791e-19
175	0x39c403a3	0.00037386743
176	0x3a037a5d	0.0005015487
177	0x39cc9ad6	0.00039025274
178	0x39d64e2a	0.00040875498
179	0x39cbee45	0.00038896702
180	0x003c6773	5.54724e-39
181	0x802d0105	-4.132963e-39
182	0x803141e6	-4.523579e-39
183	0x004c728a	7.020587e-39
184	0x80347d75	-4.820451e-39
185	0xba1c17e0	-0.00059544854
186	0xb8ab533d	-8.16942e-05
187	0xba1afa31	-0.0005911915
188	0xba1a2ed5	-0.00058816123
189	0xba1ad6a1	-0.0005906616
190	0xaadeb08e	-3.955763e-13
191	0x8cdf7c08	-3.4433239e-31
192	0xaae613dc	-4.0869988e-13
193	0xaaee0114	-4.227804e-13
194	0xaae485c6	-4.059376e-13
195	0x2ea3eb00	7.454126e-11
196	0xad267f90	-9.464332e-12
197	0x2eab3a8b	7.786579e-11
198	0x2eb2f72e	8.138411e-11
199	0x2eac9051	7.84729e-11
200	0x39c56106	0.00037647056
201	0x12519d10	6.6142366e-28
202	0x39c7e44a	0.00038126326
203	0x39ca0615	0.00038532974
204	0x39c63093	0.00037801694
205	0x377905fb	1.4842949e-05
206	0x2e1f74ac	3.625604e-11
207	0x377fb9c6	1.5242438e-05
208	0x37824164	1.5527658e-05
209	0x377fcd26	1.5246949e-05
210	0xba85cfa4	-0.0010208976
211	0x3c1e4e42	0.009662213
212	0xbcc88af5	-0.024480322
213	0xbbc9b7e5	-0.006155955
214	0xbc414f0e	-0.011798633
215	0xb2f2443d	-2.8203539e-08
216	0xa19dd045	-1.0693862e-18
217	0xb2f8fbd6	-2.8985522e-08
218	0xb31422f3	-3.449072e-08
219	0xb3087867	-3.1774473e-08
220	0x000b9aa1	1.065661e-39
221	0x80043425	-3.86048e-40
222	0x003cbca5	5.577803e-39
223	0x001f0bf6	2.851191e-39
224	0x0021732c	3.071887e-39
225	0x0036fd03	5.04988e-39
226	0x002ccc8d	4.114141e-39
227	0x0049f52b	6.791941e-39
228	0x8006c14a	-6.20352e-40
229	0x0014fc7a	1.927281e-39
230	0x36c718d6	5.9335534e-06
231	0xaac0b8bd	-3.423424e-13
232	0x36ca1300	6.022281e-06
233	0x36ce43c5	6.147168e-06
234	0x36cb5d07	6.0607013e-06
235	0xbda91f79	-0.08257956
236	0x3d4431a6	0.04789891
237	0x3d9e3ce5	0.077264585
238	0x3cd247b3	0.025668954
239	0xbd368f73	-0.044570398
240	0x802d481c	-4.158465e-39
241	0x001e18ae	2.763918e-39
242	0x802cfaf0	-4.130781e-39
243	0x8010dc3f	-1.548377e-39
244	0x80284528	-3.698228e-39
245	0xbae0f02b	-0.0017161419
246	0xa85ce912	-1.2262992e-14
247	0xbae81b4c	-0.001770833
248	0xbade3988	-0.0016954402
249	0xbae731f0	-0.0017638784
250	0xbc9258cb	-0.017864605
251	0xbc74025c	-0.014893141
252	0xbc934424	-0.017976828
253	0xbc94a28c	-0.018143915
254	0xbc9400f7	-0.018066866
255	0xbafbb9a5	-0.0019205107

module.lstm.weight_hh_l0 f4 [512, 128]
0	0x1e8f5918	1.5177562e-20
1	0x800ec7e0	-1.357399e-39
2	0x0f53b1aa	1.043732e-29
3	0x801ed6b2	-2.832083e-39
4	0x1ce5b2b1	1.5200139e-21
5	0x8014893f	-1.885945e-39
6	0x0047fbc3	6.610635e-39
7	0x003b6afb	5.456672e-39
8	0x80502e1e	-7.363383e-39
9	0x1902ccfa	6.762237e-24
10	0x801c1151	-2.577606e-39
11	0x8022780f	-3.165476e-39
12	0x800f2196	-1.389581e-39
13	0x004ac25c	6.86555e-39
14	0x0047702e	6.560563e-39
15	0x0026723d	3.53073e-39
16	0x8049211b	-6.715867e-39
17	0x000460c0	4.0205e-40
18	0x1ba7acc5	2.7739482e-22
19	0x80449f46	-6.30195e-39
20	0x0009ac4a	8.88325e-40
21	0x1bdda81d	3.6670024e-22
22	0xa48c24d3	-6.0777704e-17
23	0x9b876b8e	-2.2403382e-22
24	0x18a02514	4.139647e-24
25	0x245e12f0	4.8154617e-17
26	0x151cf107	3.1694086e-26
27	0x9cb9f596	-1.2305756e-21
28	0x00488888	6.661134e-39
29	0xa390a279	-1.5681321e-17
30	0x0000ba46	6.6822e-41
31	0x938f9f0d	-3.625511e-27
32	0x80187c87	-2.248724e-39
33	0x246a05fd	5.0745734e-17
34	0x11ea542c	3.6970565e-28
35	0xa373b012	-1.3210341e-17
36	0x001a71f1	2.428597e-39
37	0x9c12eef8	-4.861621e-22
38	0x801919e4	-2.305175e-39
39	0x1e6b5b43	1.2459669e-20
40	0x801103bf	-1.562547e-39
41	0x14235a52	8.2472095e-27
42	0x802b1c62	-3.959108e-39
43	0x80298b1d	-3.81516e-39
44	0x002aaa34	3.918148e-39
45	0x0008042d	7.36182e-40
46	0x9cc13567	-1.2785473e-21
47	0x1a953c1f	6.1722087e-23
48	0x00366e0f	4.998598e-39
49	0x001a648f	2.423797e-39
50	0x001a94fa	2.441166e-39
51	0x9aca71ba	-8.372898e-23
52	0x9b0f7b7f	-1.1868586e-22
53	0x0039b79b	5.300489e-39
54	0x0000642a	3.5932e-41
55	0x8018bf97	-2.272781e-39
56	0x01d00835	7.641891e-38
57	0x004a72b7	6.836979e-39
58	0x9fa7b59a	-7.1027686e-20
59	0x9186908c	-2.1230556e-28
60	0xa4562da9	-4.644253e-17
61	0x0015986c	1.983224e-39
62	0x002da619	4.192182e-39
63	0x8015b1af	-1.992286e-39
64	0x804d0dac	-7.076238e-39
65	0x8026a411	-3.548605e-39
66	0x1853a679	2.7355158e-24
67	0x00470639	6.522552e-39
68	0x80384b40	-5.169782e-39
69	0x19931ccd	1.5211076e-23
70	0x804ea5e1	-7.222675e-39
71	0x153e4bc0	3.842995e-26
72	0x1bfd7771	4.1932526e-22
73	0x804ef229	-7.25004e-39
74	0xa205b18e	-1.8118858e-18
75	0x908fd904	-5.673792e-29
76	0x80484921	-6.63839e-39
77	0xa329d851	-9.207315e-18
78	0x80225587	-3.153088e-39
79	0xa4378e62	-3.9802402e-17
80	0x9a2bf6e3	-3.5561405e-23
81	0xa3f0da8d	-2.6113412e-17
82	0x8041f3b9	-6.056738e-39
83	0x237a2bf1	1.3561832e-17
84	0x0025acd3	3.459911e-39
85	0x004d6d79	7.110605e-39
86	0x0031e504	4.582095e-39
87	0x0008ac77	7.96553e-40
88	0x8042db34	-6.139778e-39
89	0x9efc096e	-2.6685438e-20
90	0x915b10bc	-1.728121e-28
91	0x001e9c65	2.811169e-39
92	0x1aa7b07e	6.935472e-23
93	0x9ef20c6b	-2.5627883e-20
94	0x00162c57	2.036287e-39
95	0x1b1a59a4	1.2767546e-22
96	0x00014071	1.14953e-40
97	0x804263f8	-6.097005e-39
98	0x90e7002b	-9.1113693e-29
99	0x801a07ce	-2.390523e-39
100	0x804a5236	-6.825318e-39
101	0x0033215b	4.695576e-39
102	0x0000baed	6.7056e-41
103	0x05aa518e	1.6016682e-35
104	0x8045923c	-6.389108e-39
105	0x20c060b3	3.2590055e-19
106	0x801c4705	-2.596871e-39
107	0x001bc6c6	2.550865e-39
108	0x004a290f	6.810556e-39
109	0x004a98e4	6.850674e-39
110	0x0b0d9fd2	2.7275848e-32
111	0x0032c617	4.662836e-39
112	0x9521e47a	-3.2693927e-26
113	0x004d4e8c	7.09951e-39
114	0x8053922d	-7.674784e-39
115	0xa38bcf9c	-1.5158336e-17
116	0x1b709f99	1.9903903e-22
117	0x803ac6f0	-5.397824e-39
118	0x9daa865d	-4.5137554e-21
119	0x0006ec20	6.35719e-40
120	0x002f237d	4.328999e-39
121	0x00209ee5	2.995736e-39
122	0x004a255e	6.809232e-39
123	0x000f9ed7	1.434513e-39
124	0x00251d54	3.408434e-39
125	0x9b31b92b	-1.4700928e-22
126	0x80344f37	-4.803863e-39
127	0x0609aa4e	2.5891956e-35
128	0x8004f0f7	-4.53784e-40
129	0x8036760e	-5.001467e-39
130	0x0012df76	1.733202e-39
131	0x8004c912	-4.39472e-40
132	0x00183d6e	2.226089e-39
133	0x80488ac9	-6.661942e-39
134	0x003fe871	5.86902e-39
135	0x804102f8	-5.970372e-39
136	0x002db3dc	4.197119e-39
137	0x00017563	1.33946e-40
138	0x004dcbbe	7.144422e-39
139	0x8037076c	-5.053615e-39
140	0x00053a3c	4.80068e-40
141	0x80376949	-5.088721e-39
142	0x802170a8	-3.070985e-39
143	0x8030b237	-4.472035e-39
144	0x000c06b9	1.104438e-39
145	0x800b72b1	-1.051334e-39
146	0x801416d6	-1.844902e-39
147	0x0026a940	3.550464e-39
148	0x00445a48	6.2772e-39
149	0x8048bf0d	-6.680692e-39
150	0x804fbcfd	-7.3228e-39
151	0x003c129b	5.516804e-39
152	0x00240e73	3.311261e-39
153	0x00374062	5.074048e-39
154	0x003c062c	5.512344e-39
155	0x005178ec	7.482054e-39
156	0x801e4b87	-2.782159e-39
157	0x00496be4	6.742695e-39
158	0x8030d8d9	-4.485894e-39
159	0x00502f11	7.363724e-39
160	0x8043f4dd	-6.240819e-39
161	0x80059a15	-5.14452e-40
162	0x804d887c	-7.120295e-39
163	0x8038993f	-5.197762e-39
164	0x80448a1b	-6.294357e-39
165	0x0051a10f	7.496452e-39
166	0x80141de9	-1.84744e-39
167	0x003b4d79	5.446086e-39
168	0x804f67a3	-7.292182e-39
169	0x00319796	4.554318e-39
170	0x80122344	-1.66569e-39
171	0x8030068b	-4.410451e-39
172	0x80324820	-4.617648e-39
173	0x801d9edc	-2.720217e-39
174	0x8010413e	-1.492772e-39
175	0x004765ec	6.556883e-39
176	0x802ae8b6	-3.940572e-39
177	0x8052d418	-7.606596e-39
178	0x004dc4d7	7.141946e-39
179	0x8050d8c8	-7.424606e-39
180	0x00029ca5	2.39864e-40
181	0x0024e586	3.388415e-39
182	0x8038227d	-5.15516e-39
183	0x001fbbf5	2.914327e-39
184	0x0044df79	6.32498e-39
185	0x000bea4a	1.094238e-39
186	0x003881cd	5.189352e-39
187	0x8001568a	-1.2288e-40
188	0x004dbccc	7.139061e-39
189	0x800349d0	-3.01985e-40
190	0x00161d12	2.03081e-39
191	0x002b0312	3.950028e-39
192	0x00124b90	1.680146e-39
193	0x80381da4	-5.153421e-39
194	0x0037a8b0	5.111466e-39
195	0x80289a78	-3.728833e-39
196	0x800fa9d2	-1.438452e-39
197	0x00031b5e	2.85324e-40
198	0x804f42a3	-7.278909e-39
199	0x003d4168	5.625429e-39
200	0x801fe918	-2.930519e-39
201	0x000ca51d	1.161257e-39
202	0x802364dc	-3.250424e-39
203	0x003c0d6c	5.514945e-39
204	0x8032b4f4	-4.656689e-39
205	0x803e7e3e	-5.739088e-39
206	0x801e3cf7	-2.776935e-39
207	0x8013f1bd	-1.831594e-39
208	0x0020fe47	3.029953e-39
209	0x002644cb	3.514427e-39
210	0x80528bf3	-7.580715e-39
211	0x803b9733	-5.472534e-39
212	0x80239bde	-3.270157e-39
213	0x0024933a	3.358893e-39
214	0x00160a74	2.024131e-39
215	0x0010d796	1.546706e-39
216	0x0006b458	6.15708e-40
217	0x002797f7	3.636099e-39
218	0x801983f5	-2.343225e-39
219	0x000158da	1.2371e-40
220	0x801c4106	-2.59472e-39
221	0x0030e6ce	4.490901e-39
222	0x0042114f	6.067352e-39
223	0x80372b4a	-5.066481e-39
224	0x80219700	-3.08474e-39
225	0x0016ffbc	2.112121e-39
226	0x004ddd87	7.150802e-39
227	0x003f638d	5.821348e-39
228	0x8020a0ec	-2.996464e-39
229	0x0034566f	4.806452e-39
230	0x802982cd	-3.812178e-39
231	0x0002eef0	2.69386e-40
232	0x8014197a	-1.845849e-39
233	0x8007375a	-6.62705e-40
234	0x003b8a09	5.467812e-39
235	0x8052eac0	-7.614723e-39
236	0x804a82b2	-6.842711e-39
237	0x804dbc8c	-7.138971e-39
238	0x0045cdfa	6.41054e-39
239	0x802d7a1c	-4.176402e-39
240	0x8009908c	-8.78373e-40
241	0x0033fa45	4.77339e-39
242	0x004fe8a3	7.338459e-39
243	0x804a7081	-6.836186e-39
244	0x8017404c	-2.135282e-39
245	0x801b8781	-2.528168e-39
246	0x804e2c44	-7.179048e-39
247	0x003eadb1	5.75611e-39
248	0x00036c32	3.1432e-40
249	0x00067ddd	5.96164e-40
250	0x8042fe12	-6.152286e-39
251	0x8014162a	-1.844661e-39
252	0x8032d100	-4.66675e-39
253	0x004d4d89	7.099148e-39
254	0x80228227	-3.169097e-39
255	0x80324a3d	-4.618406e-39

module.lstm.bias_ih_l0 f4 [512]
0	0xa520c4e2	-1.3944494e-16
1	0x803510bc	-4.873284e-39
2	0x96b799f2	-2.9662398e-25
3	0x1d0e614a	1.884384e-21
4	0xb4f19db5	-4.5004495e-07
5	0x804dcd96	-7.145084e-39
6	0xac3fc6e6	-2.7253143e-12
7	0x2b1dc9b8	5.6057546e-13
8	0x803ef03f	-5.779985e-39
9	0x33af185e	8.153505e-08
10	0x8000ae7f	-6.2597e-41
11	0x003dae9e	5.664606e-39
12	0x003f3dca	5.807802e-39
13	0xa6492580	-6.9786706e-16
14	0x002a0a4f	3.860789e-39
15	0x802b192a	-3.957953e-39
16	0x801a1373	-2.3947e-39
17	0xbb7f8a4b	-0.003899234
18	0xb5f33bd2	-1.8122321e-06
19	0x800d4bf8	-1.221114e-39
20	0x00346179	4.810412e-39
21	0xb594aafe	-1.1076625e-06
22	0xa180a8cd	-8.718299e-19
23	0xa3c735b3	-2.1598366e-17
24	0xb24e919f	-1.20238886e-08
25	0xb3581f16	-5.031969e-08
26	0x2e3a35b0	4.2339188e-11
27	0x35296228	6.310024e-07
28	0x800f6735	-1.414556e-39
29	0x24e7a32f	1.00456724e-16
30	0x804ef0d6	-7.249564e-39
31	0x210729dd	4.5795185e-19
32	0x00520ed7	7.535834e-39
33	0xb1a87e91	-4.9038325e-09
34	0x1a974389	6.2561245e-23
35	0x2895c321	1.6626947e-14
36	0x804a7bae	-6.840195e-39
37	0xb42b4df0	-1.595397e-07
38	0x88bb7be6	-1.12837815e-33
39	0x28e7153b	2.5655359e-14
40	0x002bfea2	4.040271e-39
41	0xaa430e6f	-1.7324487e-13
42	0x0023fb15	3.304314e-39
43	0x8011e5ff	-1.64371e-39
44	0x004a3e5d	6.818198e-39
45	0x80148e14	-1.887678e-39
46	0xa9a1015d	-7.150073e-14
47	0x3199248a	4.45704e-09
48	0x80022a00	-1.98738e-40
49	0xa3252ca2	-8.954119e-18
50	0x002adce3	3.93633e-39
51	0xaf1186a5	-1.3235509e-10
52	0x37df45c3	2.6616157e-05
53	0x98be1c79	-4.91426e-24
54	0x8050c37e	-7.416969e-39
55	0x8002475c	-2.0927e-40
56	0x3088d248	9.955068e-10
57	0x000e0486	1.28732e-39
58	0x002454e4	3.336531e-39
59	0xa0129bfd	-1.2418293e-19
60	0x80198c00	-2.34611e-39
61	0x804d2647	-7.085065e-39
62	0x28a790c3	1.8603505e-14
63	0x255e3309	1.9272722e-16
64	0x2e9d7042	7.1594744e-11
65	0x28e3a390	2.5272997e-14
66	0x24890778	5.942693e-17
67	0xaa2c3232	-1.5294084e-13
68	0x0049254e	6.717374e-39
69	0xb18fe548	-4.187914e-09
70	0x0042f005	6.147246e-39
71	0xa0a7eb39	-2.8446558e-19
72	0x32900b01	1.676881e-08
73	0x001a9173	2.4399e-39
74	0xa9983ec2	-6.761043e-14
75	0xaef56171	-1.1158619e-10
76	0x00344205	4.799129e-39
77	0x35b74ffd	1.3657842e-06
78	0x9aee4f86	-9.856297e-23
79	0xa107d67f	-4.602366e-19
80	0xb4a17f0b	-3.0081023e-07
81	0x947be9f9	-1.27184046e-26
82	0x0038e121	5.223549e-39
83	0x00320e78	4.596965e-39
84	0x8018fe6c	-2.295321e-39
85	0x0018c062	2.273066e-39
86	0x80066b34	-5.8947e-40
87	0x80337f3e	-4.729256e-39
88	0x9210d70f	-4.570347e-28
89	0x285c7ca1	1.2239478e-14
90	0x1c979992	1.0032039e-21
91	0x8010f403	-1.556903e-39
92	0x333a536d	4.3382375e-08
93	0x00014553	1.16704e-40
94	0x801558ff	-1.960471e-39
95	0x801d14d2	-2.670698e-39
96	0xae0f2a90	-3.255224e-11
97	0x800b85c4	-1.058177e-39
98	0xaf2235eb	-1.475297e-10
99	0xa9e437d5	-1.0134919e-13
100	0x801b415a	-2.503002e-39
101	0x00078174	6.89288e-40
102	0x006dd7c3	1.008747e-38
103	0x978bd7d6	-9.037149e-25
104	0x8027f706	-3.6702e-39
105	0xa6cb498c	-1.410589e-15
106	0x00027861	2.26855e-40
107	0x0020bb21	3.005865e-39
108	0x002e2c1e	4.240259e-39
109	0x8b7eca67	-4.907089e-32
110	0x2e6301c2	5.1615386e-11
111	0x002f36ed	4.335972e-39
112	0xa31c4721	-8.471839e-18
113	0x8003f78a	-3.64307e-40
114	0x000f1f1b	1.388691e-39
115	0x2ac0de9f	3.4260526e-13
116	0xb8f29076	-0.00011566367
117	0x804ca42a	-7.038389e-39
118	0x80164026	-2.043393e-39
119	0x004c5b99	7.012357e-39
120	0x004e2a75	7.1784e-39
121	0x802130c7	-3.04807e-39
122	0x8d71a27e	-7.445945e-31
123	0x08b79a98	1.1050257e-33
124	0x803e5b26	-5.726499e-39
125	0x2ed1924c	9.530207e-11
126	0x00406ef6	5.917277e-39
127	0x2a61af29	2.0044785e-13
128	0x24061111	2.9071074e-17
129	0x802477b6	-3.349022e-39
130	0x172320e6	5.2709664e-25
131	0x1b9f086e	2.630979e-22
132	0xb285b27e	-1.5564407e-08
133	0x801daac9	-2.724496e-39
134	0x0a22072d	7.801366e-33
135	0x003b67b1	5.455492e-39
136	0x802197e2	-3.085057e-39
137	0x1368c803	2.938113e-27
138	0x0034c1b9	4.84494e-39
139	0x00247b40	3.350292e-39
140	0x00424e6e	6.089278e-39
141	0xa59af83e	-2.6882957e-16
142	0x80030a31	-2.79162e-40
143	0x93ab6e21	-4.3275064e-27
144	0x0014aa10	1.897717e-39
145	0x00289d33	3.729812e-39
146	0xb4b713e3	-3.4100876e-07
147	0x004e4d92	7.190996e-39
148	0x802edf7e	-4.304607e-39
149	0xa59d89db	-2.7328573e-16
150	0x20674f33	1.9592666e-19
151	0xa6c551cd	-1.3691793e-15
152	0x9531425b	-3.579721e-26
153	0xaf707f34	-2.1873064e-10
154	0xab442b1b	-6.969301e-13
155	0x31f16b1a	7.026199e-09
156	0x801b4d63	-2.50732e-39
157	0x2607bb80	4.7091644e-16
158	0x8016815d	-2.066788e-39
159	0xa01d3ec0	-1.331918e-19
160	0x00394f33	5.263035e-39
161	0xab7ed2a7	-9.0531266e-13
162	0x9abf2d3e	-7.906884e-23
163	0xadfd2470	-2.8778951e-11
164	0x80511b77	-7.448528e-39
165	0x352a1ffe	6.337649e-07
166	0x071c4acc	1.1758116e-34
167	0x209911d2	2.5931e-19
168	0x0005a0da	5.1688e-40
169	0xa9f042de	-1.06697406e-13
170	0x8004cecd	-4.41528e-40
171	0x802eaa1c	-4.285457e-39
172	0x801dc616	-2.734289e-39
173	0x8009359f	-8.45755e-40
174	0xa763753d	-3.1566133e-15
175	0xb2c43bb9	-2.2844562e-08
176	0x801ec499	-2.825591e-39
177	0x210e8f0a	4.830078e-19
178	0x00153d2e	1.950493e-39
179	0x2c0d1555	2.0049147e-12
180	0x328df93e	1.6527903e-08
181	0x998d9acb	-1.4641579e-23
182	0x004ac7b7	6.867471e-39
183	0x00097b24	8.70694e-40
184	0x306f80a6	8.7130514e-10
185	0x0020cb05	3.011566e-39
186	0x07197773	1.1545544e-34
187	0x98e22b0d	-5.84631e-24
188	0x33e3b1f7	1.0602883e-07
189	0x00013ad0	1.12933e-40
190	0x288ee86e	1.5865967e-14
191	0x24fe5a7c	1.1030823e-16
192	0xaf71fb19	-2.200803e-10
193	0x286a9c92	1.302356e-14
194	0xa3456961	-1.0701706e-17
195	0xa9c79603	-8.863398e-14
196	0x002a5c13	3.890121e-39
197	0x2e4e5a7d	4.6919347e-11
198	0x802533ba	-3.41647e-39
199	0x198970c6	1.4211017e-23
200	0xb1f48175	-7.116052e-09
201	0x000b1f0f	1.021332e-39
202	0x20d7830b	3.6509134e-19
203	0x001b8144	2.52593e-39
204	0x804d4008	-7.094303e-39
205	0x9d363616	-2.4115461e-21
206	0x9adc0963	-9.100503e-23
207	0x0054a6ea	7.774059e-39
208	0x801cb458	-2.636089e-39
209	0x9555c782	-4.317239e-26
210	0x80193cf2	-2.31775e-39
211	0x8e3ebf39	-2.3511378e-30
212	0x0006c37d	6.21141e-40
213	0x002bb82d	4.014996e-39
214	0x00223c9e	3.144152e-39
215	0x80505270	-7.376413e-39
216	0x923ccd0e	-5.957509e-28
217	0xa9140617	-3.2867884e-14
218	0x1b1da56d	1.3040188e-22
219	0x8020bded	-3.006868e-39
220	0x32008e73	7.48297e-09
221	0x0015be30	1.996772e-39
222	0x003a9921	5.381391e-39
223	0xb429b076	-1.5803548e-07
224	0x000ebc07	1.353148e-39
225	0x8038bde2	-5.210905e-39
226	0xaf81ec42	-2.3632835e-10
227	0xa955b14c	-4.744928e-14
228	0x8004c593	-4.38218e-40
229	0x004a594e	6.827863e-39
230	0x004c1197	6.985808e-39
231	0x93c31852	-4.9248902e-27
232	0x802ec864	-4.29632e-39
233	0xa4769074	-5.3465103e-17
234	0x8002b0d7	-2.47109e-40
235	0x802b1a9a	-3.958469e-39
236	0x80200c8c	-2.943237e-39
237	0x8b5ac61f	-4.2134323e-32
238	0x2df0882a	2.734531e-11
239	0x0010dd79	1.548817e-39
240	0x98bd66a3	-4.895899e-24
241	0x002562cb	3.433354e-39
242	0x000dc305	1.263821e-39
243	0xa9f34b9e	-1.0804485e-13
244	0xb9bb1189	-0.00035680484
245	0x0052195c	7.539608e-39
246	0x000ad694	9.95331e-40
247	0x80492f98	-6.721065e-39
248	0x8012bd75	-1.721003e-39
249	0x00179985	2.167289e-39
250	0x0cf5978c	3.7839436e-31
251	0x80182a96	-2.219329e-39
252	0x004eb478	7.227909e-39
253	0x2ce0f93c	6.3941335e-12
254	0x004e9015	7.214856e-39
255	0xa9e0c81e	-9.982313e-14

module.lstm.bias_hh_l0 f4 [512]
0	0x2380c422	1.3960853e-17
1	0x0033185a	4.692346e-39
2	0x96dab02f	-3.5330987e-25
3	0x1d0c6a94	1.8583945e-21
4	0xb4f1669b	-4.4964403e-07
5	0x804e201c	-7.174687e-39
6	0xac40dcb7	-2.7407362e-12
7	0xab42b6ab	-6.917615e-13
8	0x801850df	-2.233063e-39
9	0x33b4404d	8.3935994e-08
10	0x0017ba26	2.178994e-39
11	0x803300ae	-4.683854e-39
12	0x0048c66d	6.683337e-39
13	0xa63fbdca	-6.652365e-16
14	0x002e8e7a	4.275544e-39
15	0x0033af51	4.746502e-39
16	0x8000cedb	-7.4206e-41
17	0xbb7f8952	-0.0038991761
18	0xb5fdca1d	-1.8908792e-06
19	0x000d31eb	1.211769e-39
20	0x002cb60a	4.106065e-39
21	0xb58b17ce	-1.0363235e-06
22	0xa1503601	-7.0544615e-19
23	0x249cb546	6.7961305e-17
24	0xb24e504c	-1.20090355e-08
25	0xb36bbfcc	-5.488964e-08
26	0x2e488ab5	4.559793e-11
27	0x345a6fac	2.0343458e-07
28	0x80376154	-5.085867e-39
29	0x260f5d81	4.9739813e-16
30	0x804eca59	-7.235757e-39
31	0x20fbf653	4.2684058e-19
32	0x0042afeb	6.12425e-39
33	0xb1e9411d	-6.788595e-09
34	0x18a62a90	4.295297e-24
35	0x28428f46	1.0800231e-14
36	0x801e8495	-2.802626e-39
37	0xb42ad6eb	-1.591067e-07
38	0x88dcedde	-1.3296691e-33
39	0x291b64dc	3.4504395e-14
40	0x004cb4d3	7.044365e-39
41	0xaa2e1bf7	-1.5464007e-13
42	0x0010f32c	1.556602e-39
43	0x00485e07	6.645886e-39
44	0x0049acf7	6.76604e-39
45	0x0030e95f	4.491822e-39
46	0xa9bbbddd	-8.337404e-14
47	0x3192a744	4.268175e-09
48	0x802c2203	-4.052963e-39
49	0xa31abe6b	-8.388679e-18
50	0x800d0c71	-1.198325e-39
51	0xaee96f0b	-1.06153385e-10
52	0x37dfd118	2.6681038e-05
53	0x98bdc34a	-4.9052546e-24
54	0x804bf9ef	-6.977321e-39
55	0x803b651f	-5.45457e-39
56	0x30987d91	1.1095144e-09
57	0x8001b59a	-1.56982e-40
58	0x80019e5b	-1.48643e-40
59	0x9fbcd8f3	-7.998001e-20
60	0x804fad69	-7.317212e-39
61	0x8027a1da	-3.639646e-39
62	0x28a8dfd9	1.8748825e-14
63	0x25663d0a	1.9970001e-16
64	0xaf1622a8	-1.3654733e-10
65	0x28e4ad42	2.5388224e-14
66	0x238fc234	1.558634e-17
67	0xaa399bac	-1.648531e-13
68	0x004fd1fe	7.330335e-39
69	0xb1445037	-2.856735e-09
70	0x8048ad8a	-6.67441e-39
71	0xa0b404fd	-3.0496487e-19
72	0x328ff7bb	1.6760046e-08
73	0x804ee3dd	-7.24491e-39
74	0xa99822bb	-6.756181e-14
75	0xaeef1190	-1.08715814e-10
76	0x00087972	7.7825e-40
77	0x35b11480	1.3193494e-06
78	0x9aedb3cc	-9.831138e-23
79	0xa100ce06	-4.3640757e-19
80	0xb4a86d51	-3.1371977e-07
81	0x94685699	-1.1730085e-26
82	0x802060dc	-2.973482e-39
83	0x8012d7a3	-1.730395e-39
84	0x0046198f	6.437653e-39
85	0x001e7ae9	2.799157e-39
86	0x0051c4ee	7.50932e-39
87	0x004fe1f9	7.336068e-39
88	0x9190e053	-2.2857445e-28
89	0x285dbaf0	1.23085e-14
90	0x1cb3782f	1.1876293e-21
91	0x001b9a98	2.535016e-39
92	0x330c39de	3.264892e-08
93	0x003b1c28	5.428395e-39
94	0x80295066	-3.794097e-39
95	0x8051885b	-7.48759e-39
96	0xae0f4880	-3.257883e-11
97	0x00260175	3.490272e-39
98	0xaede0a38	-1.00972064e-10
99	0xa9e81dfa	-1.030807e-13
100	0x8045508a	-6.365541e-39
101	0x002339c4	3.234965e-39
102	0x01b43b42	6.620659e-38
103	0x1778c005	8.0375485e-25
104	0x0016816b	2.066807e-39
105	0xa72bf637	-2.386449e-15
106	0x0007bcf2	7.10629e-40
107	0x00211eed	3.041665e-39
108	0x0020815b	2.98514e-39
109	0x8b86a4b5	-5.1862746e-32
110	0x2e630678	5.161957e-11
111	0x0027fd21	3.67239e-39
112	0xa31a38c2	-8.360376e-18
113	0x00263476	3.508568e-39
114	0x00024184	2.07174e-40
115	0x2b5acde0	7.7734867e-13
116	0xb8ffb820	-0.000121936435
117	0x804243c0	-6.085447e-39
118	0x00500248	7.347658e-39
119	0x8010f370	-1.556697e-39
120	0x80461ee6	-6.439569e-39
121	0x80093c0f	-8.48064e-40
122	0x8daf1e47	-1.0792497e-30
123	0x08bfc6c4	1.1542124e-33
124	0x804cc83a	-7.051325e-39
125	0x2ed179a7	9.5258294e-11
126	0x004d808b	7.117446e-39
127	0x2a950373	2.647011e-13
128	0x251529f7	1.2937908e-16
129	0x002eee78	4.309979e-39
130	0x16ee60b2	3.8511997e-25
131	0x1b991dcf	2.533099e-22
132	0xb280ae09	-1.4980303e-08
133	0x0039e1c8	5.315618e-39
134	0x0a7ae926	1.20809125e-32
135	0x80512891	-7.453228e-39
136	0x000a1189	9.24645e-40
137	0x1368a9e0	2.9366272e-27
138	0x00151af1	1.93821e-39
139	0x804e5054	-7.191985e-39
140	0x00004343	2.4129e-41
141	0xa59a8b21	-2.680902e-16
142	0x0012191b	1.662045e-39
143	0x93a5d74e	-4.1864163e-27
144	0x80188777	-2.252648e-39
145	0x004853ab	6.64217e-39
146	0xb4c3ccc3	-3.6470564e-07
147	0x804e8ef4	-7.21445e-39
148	0x8006acd7	-6.13016e-40
149	0xa57df47b	-2.2027085e-16
150	0x209b7ef1	2.6342024e-19
151	0xa6e9b745	-1.6217298e-15
152	0x958cd8e8	-5.688777e-26
153	0xaf28d12a	-1.5353821e-10
154	0xab664318	-8.1805526e-13
155	0xb15353ca	-3.075217e-09
156	0x001f6482	2.882956e-39
157	0x269c4f09	1.0846097e-15
158	0x8049ce0d	-6.777908e-39
159	0x1f8bb434	5.916691e-20
160	0x8048b490	-6.67693e-39
161	0xab7b0171	-8.9175114e-13
162	0x1ae7d821	9.5888536e-23
163	0xadeeb990	-2.7139874e-11
164	0x8040842b	-5.924885e-39
165	0x352b55f5	6.382755e-07
166	0x07811b01	1.9425634e-34
167	0x2099567c	2.597644e-19
168	0x8042ce52	-6.135157e-39
169	0xaa26bd60	-1.4809464e-13
170	0x00013aef	1.12977e-40
171	0x001120ed	1.573015e-39
172	0x804aa9c8	-6.856733e-39
173	0x800a9cfb	-9.74669e-40
174	0xa898fb13	-1.6984276e-14
175	0xb2b2637a	-2.0767164e-08
176	0x004e7397	7.204635e-39
177	0x210e9bc1	4.831761e-19
178	0x8047d12d	-6.595358e-39
179	0x2c81836e	3.680992e-12
180	0x325445e8	1.2355919e-08
181	0x998f092a	-1.4789555e-23
182	0x00380d6c	5.147603e-39
183	0x00198036	2.341881e-39
184	0x306d728d	8.6382884e-10
185	0x004ddf30	7.151398e-39
186	0x0767e0fd	1.7444627e-34
187	0x989297d3	-3.789342e-24
188	0x33f149c8	1.1235858e-07
189	0x80042f61	-3.84338e-40
190	0x2889cf17	1.5299866e-14
191	0x24ffa199	1.1086238e-16
192	0xae0dca98	-3.2239628e-11
193	0x2858a211	1.2025551e-14
194	0xa3454f2e	-1.0696158e-17
195	0xa9bcab80	-8.3786277e-14
196	0x8038f1ab	-5.229482e-39
197	0x2df7a42a	2.8153552e-11
198	0x80253c9d	-3.419657e-39
199	0x19acdcf6	1.7873629e-23
200	0xb1f4fc59	-7.1300232e-09
201	0x8031b716	-4.565618e-39
202	0xa127a3f3	-5.6798786e-19
203	0x804522de	-6.349157e-39
204	0x80356e82	-4.906924e-39
205	0x1edb51fb	2.3221433e-20
206	0x9ae5a287	-9.497476e-23
207	0x00204aa6	2.965515e-39
208	0x802f0594	-4.31827e-39
209	0x954aef2f	-4.0982258e-26
210	0x800345a1	-3.00485e-40
211	0x0db68adb	1.1250044e-30
212	0x803c4506	-5.534891e-39
213	0x00358ba4	4.917375e-39
214	0x80515409	-7.468821e-39
215	0x803ac045	-5.395432e-39
216	0x1312709e	1.8483315e-27
217	0x28af8cff	1.949005e-14
218	0x9a6cbafe	-4.8954707e-23
219	0x803d8a6a	-5.651619e-39
220	0x31fb8db3	7.321171e-09
221	0x80084f18	-7.63057e-40
222	0x8005ac04	-5.20885e-40
223	0xb42bd47c	-1.6002917e-07
224	0x804c5135	-7.00863e-39
225	0x802c9f5f	-4.097933e-39
226	0xaf991856	-2.784783e-10
227	0xa95da4ce	-4.9214803e-14
228	0x002fafcf	4.379337e-39
229	0x002f91f7	4.36863e-39
230	0x802f6647	-4.352959e-39
231	0x94e70091	-2.3325263e-26
232	0x800ab602	-9.83647e-40
233	0xa4815059	-5.6080946e-17
234	0x0042533e	6.091004e-39
235	0x00535d59	7.655833e-39
236	0x0010f5ac	1.557498e-39
237	0x8b54e0eb	-4.0998924e-32
238	0x2df79b33	2.8149571e-11
239	0x8007334d	-6.61252e-40
240	0x9c217e0b	-5.343334e-22
241	0x80165566	-2.051016e-39
242	0x80338640	-4.73177e-39
243	0x29f34322	1.08030135e-13
244	0xb9ba4a71	-0.00035532148
245	0x801ca012	-2.628816e-39
246	0x004e7310	7.204445e-39
247	0x0035e1d7	4.948297e-39
248	0x000e1c6c	1.295893e-39
249	0x801da37b	-2.721875e-39
250	0x8cca9b04	-3.1216325e-31
251	0x802ae5f1	-3.939578e-39
252	0x80265b92	-3.522598e-39
253	0x2cab8383	4.874713e-12
254	0x8037c4ca	-5.121547e-39
255	0xa97a8e09	-5.5634347e-14

module.lstm.weight_ih_l1 f4 [512, 128]
0	0xaa074c38	-1.2016852e-13
1	0xb9b6bf83	-0.00034856432
2	0x1fc1b57e	8.203893e-20
3	0xba5892cc	-0.00082616205
4	0x34faad8b	4.6692398e-07
5	0xb7de50f6	-2.6502163e-05
6	0x128d3b71	8.913004e-28
7	0xba900029	-0.0010986376
8	0x80467908	-6.471903e-39
9	0x381e2f2e	3.7714075e-05
10	0x3200f583	7.5064035e-09
11	0x0003a74a	3.35518e-40
12	0x39dcbb94	0.00042101427
13	0x2b59a68b	7.732501e-13
14	0x3ac5afac	0.0015082262
15	0xbb59f576	-0.0033257878
16	0x0043511c	6.182075e-39
17	0x0018c57b	2.274895e-39
18	0x39099c97	0.00013123672
19	0x802a9e65	-3.913912e-39
20	0xbb53b8d7	-0.0032306218
21	0xba5a2a04	-0.0008322301
22	0x3b539b82	0.0032288735
23	0x3afb1284	0.0019155298
24	0x35ca506e	1.5073581e-06
25	0x3b059f4f	0.0020389145
26	0x2b1b1c03	5.5105936e-13
27	0x35168840	5.6077624e-07
28	0x800977b3	-8.6946e-40
29	0x2e1cfa97	3.5692862e-11
30	0x001d736d	2.704636e-39
31	0xa026a509	-1.4115352e-19
32	0xbab80b1a	-0.0014041394
33	0xb8389637	-4.4008917e-05
34	0xbae39a69	-0.0017364743
35	0x3541a180	7.2133116e-07
36	0x002011c9	2.945116e-39
37	0x39a3c26c	0.00031234638
38	0x8ca2c2c3	-2.507727e-31
39	0x2c0c7d89	1.9964883e-12
40	0xb40e3c55	-1.3246729e-07
41	0x2f9a1166	2.80248e-10
42	0x8046854f	-6.476307e-39
43	0xb7bacc71	-2.2268128e-05
44	0x004c184e	6.988217e-39
45	0xad65b400	-1.3057111e-11
46	0x3a7ae734	0.0009571195
47	0xb2b1e99c	-2.0711745e-08
48	0x000f12a2	1.384217e-39
49	0xba568e4b	-0.00081846555
50	0x38fda89c	0.00012095386
51	0xbb240a2a	-0.0025030472
52	0xb8b12806	-8.447473e-05
53	0xb93d7d67	-0.0001807116
54	0x21a04b20	1.0861907e-18
55	0x35065228	5.0038443e-07
56	0xb0a7c696	-1.2207291e-09
57	0x000ed8f6	1.363528e-39
58	0x3710cf21	8.631295e-06
59	0x3a4851ac	0.00076415646
60	0x3adb2a70	0.0016721021
61	0x2eacf27d	7.864729e-11
62	0x3a41681a	0.0007377878
63	0xac6b3d26	-3.3429453e-12
64	0xaef03c22	-1.0924618e-10
65	0xb29c6bd5	-1.8209827e-08
66	0xb9d95715	-0.00041454347
67	0x31223a09	2.3607092e-09
68	0xa4baaee8	-8.0960944e-17
69	0x35adfa40	1.2962337e-06
70	0x0031fd91	4.590902e-39
71	0xba6ae995	-0.0008961198
72	0xb89fe3a9	-7.624116e-05
73	0x000fb3e8	1.44207e-39
74	0x3a821546	0.0009924553
75	0x32c4f5c3	2.2929163e-08
76	0x38a719eb	7.968008e-05
77	0x3a150e23	0.00056860055
78	0x97b4dbd8	-1.1687724e-24
79	0x3ad5de83	0.0016316924
80	0x3733f8d3	1.0727165e-05
81	0x39ce79e3	0.00039382195
82	0x810bbfba	-2.5667825e-38
83	0xb86c3d72	-5.632401e-05
84	0x804dd3ef	-7.14736e-39
85	0x004e6acb	7.201479e-39
86	0x000c0f03	1.107411e-39
87	0x00437f59	6.198662e-39
88	0xb07c967a	-9.1890906e-10
89	0xabae33e5	-1.2377847e-12
90	0x2f3cdb31	1.7176373e-10
91	0x3a70bb30	0.00091831665
92	0xb37d3d9e	-5.8962193e-08
93	0x33ec7e73	1.10126074e-07
94	0x3a1a49be	0.0005885622
95	0xbb9692b9	-0.0045951274
96	0x803749e9	-5.077466e-39
97	0x00222390	3.135164e-39
98	0xb0f1e420	-1.7599895e-09
99	0xae169a30	-3.4242997e-11
100	0x00444d46	6.272534e-39
101	0x29ff9308	1.1349781e-13
102	0x0038437d	5.166998e-39
103	0x1ac510fc	8.150473e-23
104	0x348bfc42	2.607431e-07
105	0xb6a56f11	-4.930313e-06
106	0x0026499f	3.516159e-39
107	0x004ecb5f	7.236125e-39
108	0x0006d9b2	6.29107e-40
109	0x8b5df94b	-4.27506e-32
110	0x39dc2798	0.0004199117
111	0x3005e1f9	4.8706245e-10
112	0xa080e476	-2.1835226e-19
113	0x80300889	-4.411166e-39
114	0x001458d0	1.86857e-39
115	0x2ddb9d7e	2.4967358e-11
116	0xb41907cb	-1.425207e-07
117	0x0052625f	7.5658e-39
118	0x35275f03	6.235061e-07
119	0x0016a031	2.077847e-39
120	0x8bf89a31	-9.5758127e-32
121	0x804baab0	-6.948893e-39
122	0x0d7af366	7.733018e-31
123	0xbaa0e30a	-0.0012274694
124	0xb3bf0f15	-8.896874e-08
125	0x3b28f51f	0.002578087
126	0x000da22a	1.252035e-39
127	0x2e28267e	3.8232965e-11
128	0x2b8fca56	1.0216921e-12
129	0xb9c40dce	-0.00037394318
130	0x212eb5a9	5.919392e-19
131	0x37220be1	9.658718e-06
132	0xb3e0734d	-1.0451786e-07
133	0xb3c40d07	-9.129331e-08
134	0x0e6d303f	2.9235735e-30
135	0x39836fda	0.00025069603
136	0x8019baf6	-2.362956e-39
137	0x3507ecaf	5.063584e-07
138	0x2ec01ab8	8.735895e-11
139	0x803c6012	-5.544593e-39
140	0x3ac0ce8a	0.0014709991
141	0x2c66a872	3.2778472e-12
142	0xb9ab703e	-0.0003269929
143	0xba9c712f	-0.0011935587
144	0x00456f0d	6.376487e-39
145	0x803e9ece	-5.750769e-39
146	0x358a1f13	1.0290845e-06
147	0x801f40c7	-2.870138e-39
148	0x39ae4912	0.00033242308
149	0xb9fa49d0	-0.0004773871
150	0x3b464ef2	0.0030259457
151	0xb91a29a9	-0.00014702104
152	0xb006d200	-4.9047344e-10
153	0xbad38303	-0.0016137067
154	0x2a676a15	2.0553726e-13
155	0xb508c3cd	-5.0948876e-07
156	0x804ed650	-7.24005e-39
157	0x2d79323a	1.4165164e-11
158	0x002c478d	4.06643e-39
159	0x9fd1e8f7	-8.890035e-20
160	0x39221a06	0.00015459218
161	0xb7e165ea	-2.6869548e-05
162	0x3a3810ee	0.00070215657
163	0xb3e66f6c	-1.0730477e-07
164	0x801f2ffd	-2.864115e-39
165	0x37ab2d6a	2.0405936e-05
166	0x89e32b71	-5.4689114e-33
167	0xac9e5261	-4.499776e-12
168	0x3187ec0e	3.9558534e-09
169	0xaf6a0aed	-2.1286058e-10
170	0x00065421	5.81193e-40
171	0xb386eccc	-6.282934e-08
172	0x804590a3	-6.388535e-39
173	0x9913e405	-7.64577e-24
174	0x3851cb98	5.0019094e-05
175	0x324a42b3	1.1773113e-08
176	0x8039fa92	-5.324511e-39
177	0xba318aa7	-0.0006772675
178	0xb98f1390	-0.0002728966
179	0xb9b6c514	-0.0003486058
180	0x382ead9b	4.1646515e-05
181	0x386a14ab	5.5809196e-05
182	0x00237355	3.255616e-39
183	0x2f13e9dd	1.3452657e-10
184	0x2fe8c7de	4.2342568e-10
185	0x8047dc88	-6.599432e-39
186	0x3203d312	7.673195e-09
187	0x386526b0	5.4633885e-05
188	0x3b2c3628	0.0026277397
189	0x2efd95e2	1.15317325e-10
190	0xb8281ab8	-4.0079205e-05
191	0x23a1e558	1.7552786e-17
192	0xae101de0	-3.2768344e-11
193	0xaab81d18	-3.2705154e-13
194	0xb9204692	-0.00015285079
195	0xb0a42e3e	-1.1945713e-09
196	0x003f83b7	5.832887e-39
197	0xb491a714	-2.712992e-07
198	0x801cfa33	-2.661148e-39
199	0x3890907f	6.8933696e-05
200	0xb1d95d92	-6.326169e-09
201	0x8064f9b2	-9.273123e-39
202	0x394df91e	0.00019643127
203	0xaf3f0eb2	-1.737657e-10
204	0xb7a29388	-1.9380604e-05
205	0x3a9b3f18	0.0011844365
206	0x1817c0be	1.9613603e-24
207	0x3a8e4aea	0.0010856066
208	0xb369eb01	-5.4463275e-08
209	0x37c67a4e	2.3660392e-05
210	0x004148db	5.995443e-39
211	0xb6bfad0c	-5.712389e-06
212	0x804cce29	-7.053454e-39
213	0x0006a572	6.10364e-40
214	0x001608c3	2.023524e-39
215	0x802572c2	-3.439081e-39
216	0x2cc224d2	5.5178995e-12
217	0xacad2571	-4.9211126e-12
218	0x9e69049b	-1.233587e-20
219	0xb9455419	-0.00018818713
220	0x336ace21	5.4669844e-08
221	0x3330bddd	4.1150873e-08
222	0x3a19838f	0.00058560906
223	0xb882dd94	-6.240155e-05
224	0x8045e193	-6.41757e-39
225	0x001b87f1	2.528325e-39
226	0x301f8be5	5.8042665e-10
227	0x2ebc0ad1	8.5511716e-11
228	0x000b0587	1.012173e-39
229	0x1d918b5b	3.852527e-21
230	0x80117dc3	-1.606318e-39
231	0x990a21da	-7.141269e-24
232	0x29606f66	4.9834614e-14
233	0xa999bcf5	-6.827344e-14
234	0x8025603e	-3.432439e-39
235	0x003d6d58	5.64119e-39
236	0x003a65f6	5.363035e-39
237	0x0c020b46	1.0018228e-31
238	0xb85a0101	-5.1976185e-05
239	0xacf6b09b	-7.0113477e-12
240	0x1ffc6e7d	1.0690894e-19
241	0x802e4e0c	-4.252431e-39
242	0x801532e1	-1.946797e-39
243	0xaa6195d3	-2.0035995e-13
244	0xb8251973	-3.9362767e-05
245	0x001f8422	2.894301e-39
246	0xb309ea73	-3.211103e-08
247	0x00131c67	1.755063e-39
248	0x0c039411	1.013643e-31
249	0x8052bdd9	-7.598615e-39
250	0x0967e482	2.7913057e-33
251	0xb79fdc62	-1.90569e-05
252	0xaf9b6e4f	-2.8272715e-10
253	0x39a8df35	0.0003220976
254	0x00028b59	2.3366e-40
255	0xac857a99	-3.7936984e-12

module.lstm.weight_hh_l1 f4 [512, 128]
0	0x38b36499	8.554123e-05
1	0x392ed503	0.00016673286
2	0xb91c4832	-0.00014904214
3	0x35a8106c	1.2521755e-06
4	0x370723d0	8.054965e-06
5	0x388be9de	6.671598e-05
6	0xb9347f49	-0.00017213555
7	0x38c133da	9.212615e-05
8	0x38400c1d	4.578765e-05
9	0xb91ee765	-0.00015154255
10	0xb8a48635	-7.8451274e-05
11	0x36e49c19	6.8131017e-06
12	0xb7b3f490	-2.1452346e-05
13	0x38afcc14	8.382663e-05
14	0xb7f8e5fa	-2.9670995e-05
15	0xb89dde5b	-7.52776e-05
16	0x37281c11	1.0020115e-05
17	0xb883e49e	-6.28915e-05
18	0xb92805da	-0.00016023908
19	0xb7f2ff93	-2.896766e-05
20	0xb83a4d15	-4.4417644e-05
21	0x3715f739	8.938653e-06
22	0x373ac103	1.1131403e-05
23	0xb8b234db	-8.4975465e-05
24	0x38e5c3fd	0.000109560766
25	0xb915d440	-0.00014288817
26	0xb85b8e0e	-5.2345968e-05
27	0x37bb53fb	2.2331244e-05
28	0x362c7943	2.570058e-06
29	0x372bfb2b	1.0250874e-05
30	0x37c4b851	2.345085e-05
31	0xb8e5fd51	-0.00010966755
32	0xb858571d	-5.1579544e-05
33	0x35cb58e2	1.5150547e-06
34	0xb8d76e8a	-0.000102725884
35	0xb73449a1	-1.0745979e-05
36	0x38986ce6	7.268209e-05
37	0x361db5c0	2.3500615e-06
38	0xb99ab395	-0.00029506968
39	0xb6155d14	-2.2256909e-06
40	0xb8afd71a	-8.384716e-05
41	0xb8a04483	-7.642156e-05
42	0xb835e460	-4.3366454e-05
43	0x3751ddba	1.25089955e-05
44	0xb8147184	-3.539167e-05
45	0x378ed56f	1.7027107e-05
46	0x38fd1ec2	0.00012069709
47	0x37bbb58d	2.2376678e-05
48	0x38c4f7a2	9.3921335e-05
49	0x38fe52ad	0.000121270634
50	0x3730d2a6	1.0539463e-05
51	0xb87d67f9	-6.0416733e-05
52	0xb732d0c9	-1.0658238e-05
53	0x36fd57a6	7.550191e-06
54	0x39108a0b	0.00013784335
55	0x388a1ffc	6.58631e-05
56	0x39501804	0.00019845372
57	0x386377aa	5.4232463e-05
58	0xb64b6dcd	-3.031327e-06
59	0xb6c370f9	-5.8246046e-06
60	0xb89797b1	-7.228496e-05
61	0xb8efc89d	-0.00011433775
62	0xb6e681e8	-6.869657e-06
63	0x37f897a8	2.9634524e-05
64	0x395dc66b	0.00021150119
65	0x383ecfee	4.549318e-05
66	0x38256acc	3.9438528e-05
67	0x3805909c	3.184435e-05
68	0xb903c5b6	-0.00012566787
69	0x383d629c	4.515295e-05
70	0x38bbb7e8	8.95111e-05
71	0xb80a7139	-3.300721e-05
72	0x39184e90	0.00014525116
73	0xb700508f	-7.648151e-06
74	0x36db0772	6.5275754e-06
75	0xb8817a8f	-6.174028e-05
76	0x38fcd379	0.00012055686
77	0xb6442a98	-2.9231069e-06
78	0xb80b61c3	-3.323123e-05
79	0x38331580	4.269695e-05
80	0x3943768c	0.00018640811
81	0xb80a5667	-3.2982232e-05
82	0x388d8c8d	6.7495836e-05
83	0x38984f73	7.2627234e-05
84	0xb91a9f97	-0.00014746036
85	0xb792e526	-1.7511262e-05
86	0xb8dedf83	-0.00010627417
87	0x355fb8d7	8.334295e-07
88	0x36ffa5d1	7.618896e-06
89	0xb8054688	-3.177536e-05
90	0xb8608b8f	-5.3535736e-05
91	0x378669af	1.6023258e-05
92	0xb8f6730b	-0.000117516225
93	0xb8c20952	-9.252377e-05
94	0xb8f5aba9	-0.000117144846
95	0x371b4de6	9.256857e-06
96	0xb894abee	-7.089214e-05
97	0xb77a230f	-1.4909324e-05
98	0xb7acc760	-2.0596839e-05
99	0x387537ee	5.846464e-05
100	0xb7537640	-1.2604112e-05
101	0xb8789f1e	-5.9275997e-05
102	0x38854c93	6.356197e-05
103	0xb7369679	-1.088308e-05
104	0x3875d9b2	5.8615296e-05
105	0x3896415c	7.1647315e-05
106	0xb7d1b51a	-2.4999074e-05
107	0x36a9a41e	5.0556982e-06
108	0x384c4dff	4.871003e-05
109	0x371d56fd	9.378183e-06
110	0x3984507c	0.00025236967
111	0xb8bb14ec	-8.920752e-05
112	0xb832033c	-4.244152e-05
113	0xb8fae0b4	-0.00011962783
114	0x383559ad	4.323728e-05
115	0x378f62ff	1.7093027e-05
116	0xb8b154b2	-8.4557934e-05
117	0xb6c26ffd	-5.7946877e-06
118	0x36db0259	6.526982e-06
119	0x37531333	1.258105e-05
120	0xb8906567	-6.885343e-05
121	0x37f2fd42	2.896658e-05
122	0x36baec2c	5.570726e-06
123	0x3884efc5	6.338911e-05
124	0x38e09494	0.00010708827
125	0xb780119d	-1.526699e-05
126	0x37f2619b	2.88941e-05
127	0x385bd692	5.2413503e-05
128	0x387036ec	5.727161e-05
129	0x39355b55	0.00017295529
130	0xb975f255	-0.00023455296
131	0xb8374b92	-4.370098e-05
132	0x37a3873a	1.9494084e-05
133	0x39148a26	0.00014165844
134	0xb965f67f	-0.00021930969
135	0x39003465	0.0001222655
136	0x38a0c56c	7.666167e-05
137	0xb9828532	-0.0002489477
138	0xb9442eff	-0.00018709524
139	0xb7389782	-1.100253e-05
140	0xb5ea0770	-1.7436523e-06
141	0x38e8cbef	0.00011100608
142	0xb89ee279	-7.576211e-05
143	0xb8cbf487	-9.725341e-05
144	0xb4c6fc0c	-3.7063762e-07
145	0xb8c5b776	-9.427864e-05
146	0xb8f9f546	-0.00011918931
147	0xb748a293	-1.1958781e-05
148	0xb7968196	-1.7941737e-05
149	0xb598b5ca	-1.137779e-06
150	0xb616a647	-2.2448528e-06
151	0xb8b03a17	-8.403154e-05
152	0x39007333	0.00012249946
153	0xb959107e	-0.00020700876
154	0xb76e70ac	-1.4212139e-05
155	0x37a5f20e	1.9782248e-05
156	0xb811f3bf	-3.47977e-05
157	0x385cc5c5	5.2636275e-05
158	0xb6d47665	-6.3318753e-06
159	0xb8583759	-5.154996e-05
160	0xb7ef9ab9	-2.8563069e-05
161	0x3722a9fa	9.695528e-06
162	0xb8b5402a	-8.642704e-05
163	0xb84d95c8	-4.9015303e-05
164	0x388cfe21	6.7230554e-05
165	0xb75e0f6f	-1.3235825e-05
166	0xb98f519e	-0.00027335895
167	0x382d708a	4.1351224e-05
168	0xb8eff2d2	-0.00011441637
169	0xb81df327	-3.765817e-05
170	0x36e73f98	6.8917398e-06
171	0xb73796ce	-1.0942762e-05
172	0xb8c49a7f	-9.3747854e-05
173	0xb6ddfb2d	-6.615554e-06
174	0x390e5dc7	0.0001357711
175	0x37910e94	1.7292135e-05
176	0x390887b7	0.00013020528
177	0x3987686b	0.00025827004
178	0x378456f7	1.5776122e-05
179	0xb84f9e9e	-4.950037e-05
180	0x38202c96	3.8188497e-05
181	0xb812dcf6	-3.50149e-05
182	0x3903e249	0.00012577431
183	0x38946340	7.075677e-05
184	0x3989d76f	0.00026291187
185	0x3818402b	3.6299385e-05
186	0x36d2d0a6	6.2827776e-06
187	0x3787e043	1.6197684e-05
188	0xb808a2f2	-3.257668e-05
189	0xb8e27023	-0.00010797407
190	0x37308b25	1.0522815e-05
191	0x37f5c58d	2.9298268e-05
192	0x39584ffc	0.00020629162
193	0x3810312a	3.4378063e-05
194	0x387399e9	5.8079055e-05
195	0x3626ceba	2.4856258e-06
196	0xb92da570	-0.00016560196
197	0x3876108d	5.8666385e-05
198	0x385ca368	5.260427e-05
199	0xb8429086	-4.6387802e-05
200	0x392493cc	0.00015695317
201	0xb6bc1046	-5.604731e-06
202	0x375759da	1.2835919e-05
203	0xb87a9ff4	-5.9753613e-05
204	0x385bfb69	5.2447813e-05
205	0xb6ad30c0	-5.161477e-06
206	0xb6a24bb5	-4.8367897e-06
207	0x3856fa83	5.1254883e-05
208	0x393f960e	0.00018271079
209	0xb7c8cd55	-2.3937473e-05
210	0x38464049	4.726675e-05
211	0x39059c75	0.00012742153
212	0xb911ee65	-0.00013917086
213	0xb87ca4ee	-6.0235085e-05
214	0xb89a919f	-7.370416e-05
215	0x36a392e4	4.874879e-06
216	0x371686aa	8.972051e-06
217	0xb807daaa	-3.2390155e-05
218	0xb88dc17b	-6.7594425e-05
219	0x381bdf4b	3.7162838e-05
220	0xb90610ff	-0.00012785567
221	0xb90f1a19	-0.00013647265
222	0xb89f26bc	-7.588926e-05
223	0xb5e16091	-1.6791911e-06
224	0xb90d21f6	-0.0001345946
225	0x35e8680e	1.7315631e-06
226	0xb870e828	-5.743667e-05
227	0x388db1f4	6.75655e-05
228	0x37bc8f74	2.2478147e-05
229	0xb8e0b006	-0.00010713939
230	0x37dd7fd5	2.640478e-05
231	0x37fdabef	3.0240013e-05
232	0x38501621	4.9611674e-05
233	0x38454c36	4.7039437e-05
234	0x3633c908	2.6790094e-06
235	0x384b0f51	4.8413236e-05
236	0x380f923f	3.423006e-05
237	0x37cf77bc	2.4732079e-05
238	0x3976d589	0.00023539936
239	0xb8a86fd9	-8.0316975e-05
240	0xb7d86929	-2.5798176e-05
241	0xb8f6315c	-0.00011739388
242	0x381ac4ed	3.6899863e-05
243	0xb807de55	-3.239357e-05
244	0xb8a9bc63	-8.093638e-05
245	0x362ca4f0	2.5726004e-06
246	0xb7db7792	-2.6162514e-05
247	0xb7b05d59	-2.1024303e-05
248	0xb8733b8e	-5.799118e-05
249	0xb641cd68	-2.8878803e-06
250	0xb663214d	-3.384502e-06
251	0x383e41fd	4.5360986e-05
252	0x38909ffc	6.8962545e-05
253	0x376608b1	1.3711092e-05
254	0x3829eb09	4.0511633e-05
255	0x38947aba	7.0800495e-05
