btc_predict_conv/checkpoint/lstm/all_ret15min_volume15min/model_lstm.pth (torch, 813834 bytes, 9 tensors)

module.lstm.weight_ih_l0 f4 [512, 8]
9.5870774e-08 3.7848302e-08 7.897808e-08 8.100013e-08 -3.352078e-06 -3.7307718e-06 -2.8535753e-06 -2.4373453e-06
3.4147286e-11 1.6653531e-11 2.0969712e-11 2.86263e-11 -1.6552233e-09 -2.1155453e-09 -1.7866577e-09 -1.0590792e-09
-9.942795e-10 -8.7198365e-10 -3.8533304e-10 -6.8783335e-10 1.7448154e-10 -3.4035441e-09 -7.0170296e-09 1.0145101e-08
-1.13197875e-05 -8.60991e-06 -9.266278e-06 -9.251864e-06 2.1552805e-05 1.114453e-06 2.2434831e-05 3.6074263e-05
-1.874348e-16 -2.8669058e-15 -2.5796583e-15 -9.639216e-16 4.796673e-13 4.216863e-13 4.4983863e-13 4.2647963e-13
-7.7528153e-07 -8.3193805e-07 -7.722777e-07 -7.571609e-07 1.7604612e-05 1.620986e-05 1.8661043e-05 1.7996115e-05
6.0450156e-09 3.3728893e-09 5.6876054e-10 6.2527405e-09 -3.9736015e-06 -5.075861e-06 -4.9527384e-06 -1.8104226e-06
8.395784e-12 1.27694565e-11 1.299106e-11 1.0124921e-11 -1.1478783e-10 -1.0068844e-10 -1.4462445e-10 -1.15440636e-10
-2.5242738e-11 -2.665843e-11 -4.363914e-12 -2.9496763e-11 3.9009054e-10 3.9896383e-10 5.019112e-10 4.559106e-10
2.218382e-14 2.8124626e-14 2.193153e-14 3.3699555e-14 -8.653598e-12 -8.183797e-12 -7.1734034e-12 -4.0294838e-12
2.8439031e-09 3.7197954e-09 3.82437e-09 2.8336564e-09 -2.4238831e-08 -2.7878805e-08 -2.7383644e-08 -2.1877971e-08
7.325891e-12 6.4244525e-12 8.771175e-12 6.3665015e-12 1.7189064e-11 5.690623e-11 5.1855475e-11 -6.9864184e-12
1.589388e-09 1.6354907e-09 1.896214e-09 1.5456411e-09 -1.6919198e-08 -1.8359962e-08 -2.083954e-08 -1.4920895e-08
4.7871363e-06 3.2943121e-06 8.001991e-06 3.0988347e-06 -0.0002695084 -0.00013906372 -0.00016055773 -0.00025340365
-6.435127e-06 -4.9741407e-06 -5.0793283e-06 -5.157176e-06 5.726689e-06 -1.4580538e-05 -2.2789022e-06 2.8507104e-05
2.0639263e-11 1.8469951e-11 2.0978337e-11 2.042613e-11 -4.184418e-11 -3.294669e-11 -6.388025e-11 -3.5317752e-11
-4.953256e-09 -4.099283e-09 -3.3329444e-09 -4.0865227e-09 -2.7524436e-08 -3.8039154e-08 -3.053442e-08 -7.694114e-09
1.3208986e-14 7.833332e-15 1.664696e-14 9.94076e-15 -1.8858701e-13 -1.2588652e-13 -1.5602416e-13 -2.349676e-13
-2.5529943e-11 3.1146054e-12 -1.245805e-11 -1.5795537e-11 -1.4632239e-09 -1.8778232e-09 -2.079368e-09 -9.375228e-10
1.0791107e-12 -2.3203398e-11 -3.0867468e-12 -1.3181885e-11 9.567233e-10 9.785376e-10 1.0488068e-09 5.832924e-10
2.0217502e-14 1.0757485e-14 2.282799e-14 1.5628801e-14 -1.5294252e-13 -1.1057945e-13 -2.5193093e-14 -4.061144e-13
-1.2567406e-07 -1.1057604e-07 -8.447399e-08 -1.1081153e-07 -2.0402706e-06 -3.834695e-06 -3.2926444e-06 -9.623181e-08
-1.8662627e-07 -2.0718922e-07 -1.6018794e-07 -1.9837913e-07 -9.323775e-06 -1.6103088e-05 -1.1352932e-05 -5.0627223e-06
1.7633906e-07 1.3631539e-07 1.3303841e-07 1.6141081e-07 -4.291253e-06 -4.466387e-06 -5.220051e-06 -3.5417925e-06
2.0012112e-06 6.1544284e-07 2.059987e-06 1.395292e-06 6.8847236e-05 7.4429685e-05 8.726939e-05 6.058977e-05
-4.3308472e-09 -8.739271e-09 -7.4056197e-09 -8.447049e-09 2.7916155e-07 3.0562708e-07 3.1256604e-07 2.4822776e-07
-6.0156545e-08 -6.058055e-08 -6.073699e-08 -5.2700337e-08 3.844878e-07 3.464928e-07 4.3867527e-07 4.5677916e-07
2.2568628e-11 -4.714729e-11 4.031907e-12 2.3388021e-12 -3.697026e-09 -3.7010077e-09 -4.3296513e-09 -2.3098543e-09
3.6363872e-07 2.2834831e-07 3.3609044e-07 3.938356e-07 -5.485936e-06 -3.5072003e-06 -1.475019e-06 -2.7645929e-06
-2.0364563e-09 -2.1538422e-09 -2.1051798e-09 -2.080222e-09 1.9371425e-08 1.1184128e-08 1.3925103e-08 2.2970822e-08
1.0811779e-16 1.5848933e-17 1.5237334e-16 6.2812966e-17 -9.223362e-16 -1.2364519e-17 -3.5176323e-16 -8.765092e-16
9.392321e-12 7.683381e-12 8.869359e-12 1.05215454e-11 1.7667187e-10 -5.342973e-11 2.1807051e-11 2.435372e-10
00000000: 84e1 cd33 a68e 2233 a99a a933 4bf2 ad33
00000010: 43f4 60b6 2c5e 7ab6 0d80 3fb6 4691 23b6
00000020: 6d2e 162e 6b7c 922d 9873 b82d b2cc fb2d
00000030: fe7d e3b0 1161 11b1 6e8e f5b0 098f 91b0
00000040: 1aa7 88b0 65b0 6fb0 ced6 d3af f811 3db0
00000050: 30d8 3f2f c8e3 69b1 721a f1b1 a04a 2e32
00000060: 1eea 3db7 4873 10b7 5c76 1bb7 7438 1bb7
00000070: 4ccc b437 5094 9535 6f32 bc37 724e 1738
00000080: fd18 58a5 1495 4ea7 4ce2 39a7 6eea 8aa6
00000090: ac03 072b 6763 ed2a 943c fd2a 3116 f02a
000000a0: f11c 50b5 5952 5fb5 854e 4fb5 b33f 4bb5
000000b0: 9ead 9337 69fa 8737 498a 9c37 5df6 9637
000000c0: 85b4 cf31 7fc8 6731 f756 1c30 b0d7 d631
000000d0: fa54 85b6 5051 aab6 b32f a6b6 a6fd f2b5
000000e0: 40b3 132d 85a4 602d 888a 642d 971e 322d
000000f0: ce6b fcae 8d6a ddae 2a04 1faf 4ddb fdae
00000100: 9809 dead 737d eaad a58a 99ac 67ba 01ae
00000110: 5d74 d62f 2b55 db2f dcf6 0930 b6a3 fa2f
00000120: 68d0 c728 f952 fd28 aa8a c528 f1c4 1729
00000130: 573c 18ad 8cf8 0fad 4664 fcac 5dc6 8dac
00000140: 796e 4331 559f 7f31 8467 8331 36ba 4231
00000150: c135 d0b2 247a efb2 4539 ebb2 2bee bbb2
00000160: e1e0 002d 530a e22c dc4d 1a2d 5900 e02c
00000170: 5532 972d b846 7a2e 1310 642e 10d0 f5ac
00000180: 9e71 da30 b7c7 e030 8d4e 0231 696e d430
00000190: b655 91b2 fcb5 9db2 a202 b3b2 652b 80b2
000001a0: 30a1 a036 da13 5d36 4a40 0637 93f5 4f36
000001b0: ce4c 8db9 a2d1 11b9 635b 28b9 43db 84b9
000001c0: 52ed d7b6 8be7 a6b6 196f aab6 ce0b adb6
000001d0: e227 c036 ef9e 74b7 3eef 18b6 8a22 ef37
000001e0: 7d8b b52d a276 a22d 0487 b82d 8eab b32d
000001f0: 5c08 38ae ade6 10ae 6279 8cae 4154 1bae
00000200: 4d31 aab1 add9 8cb1 c709 65b1 6f69 8cb1
00000210: e06e ecb2 7e60 23b3 f324 03b3 122f 04b2
00000220: b2f3 6d28 de1c 0d28 47f1 9528 aa13 3328
00000230: 8154 54aa 52bc 0daa e7aa 2faa 6646 84aa
00000240: 5290 e0ad be2b 5b2c 122a 5bad 63f0 8aad
00000250: 9d1a c9b0 040b 01b1 a1e4 0eb1 27da 80b0
00000260: 0fdf 972b 6819 ccad e335 59ac efe5 67ad
00000270: b57d 8330 3b7d 8630 9c25 9030 8e55 2030
00000280: 631a b628 25ca 4128 c39d cd28 90c5 8c28
00000290: ae32 2caa b700 f9a9 51eb e2a8 419f e4aa
000002a0: 06f1 06b4 d275 edb3 1168 b5b3 48f7 edb3
000002b0: 95eb 08b6 c7ab 80b6 33f7 5cb6 ffa7 ceb3
000002c0: 7063 48b4 bd77 5eb4 2000 2cb4 0a02 55b4
000002d0: 4f6d 1cb7 1e15 87b7 7978 3eb7 74e0 a9b6
000002e0: b657 3d34 175e 1234 52d9 0e34 4450 2d34
000002f0: 95fd 8fb6 f9dd 95b6 e627 afb6 88af 6db6
00000300: 8c4c 0636 e934 2535 4f3e 0a36 de45 bb35
00000310: 1462 9038 2217 9c38 6604 b738 c521 7e38
00000320: 89ce 94b1 b823 16b2 8574 feb1 841e 11b2
00000330: acdf 9534 1115 a434 c0ce a734 2a44 8534
00000340: 692f 81b3 8218 82b3 836e 82b3 a258 62b3
00000350: 9a6b ce34 9c05 ba34 1283 eb34 403b f534
00000360: 0884 c62d 215b 4fae 31dc 8d2c 1d94 242c
00000370: c50e 7eb1 d154 7eb1 04c4 94b1 63bb 1eb1
00000380: 203a c334 e82f 7534 eb6f b434 5a70 d334
00000390: d513 b8b6 3e5d 6bb6 44f9 c5b5 5887 39b6
000003a0: b8f1 0bb1 cb02 14b1 b7aa 10b1 a7f3 0eb1
000003b0: 3766 a632 5124 4032 403b 6f32 5f51 c532
000003c0: 7a4d f924 3c2e 9223 acac 2f25 3bd6 9024
000003d0: 33ec 84a6 ca15 64a3 17c7 caa5 f7a2 7ca6
000003e0: 413b 252d df2a 072d 0b08 1c2d d418 392d
000003f0: b640 422f 87fc 6aae 1dd1 bf2d d0e2 852f

module.lstm.weight_hh_l0 f4 [512, 128]
1.6170466e-09 -9.3430454e-12 -6.850876e-11 4.5943214e-09 -2.3032363e-13 5.3750204e-10 1.2765812e-09 1.9002837e-12
1.0533679e-11 1.2353549e-13 8.7948406e-11 -3.3061277e-12 -9.525403e-11 5.429438e-09 3.895753e-09 7.426243e-12
-6.8588454e-11 -1.5673038e-13 -1.7929914e-11 -9.9424245e-12 1.4863143e-13 -1.7686942e-09 1.6418871e-09 4.900025e-10
-3.2022902e-09 1.8424334e-10 -6.275397e-11 1.1250461e-11 -2.2856408e-09 1.28390736e-11 1.0601739e-14 -8.319088e-12
-7.205745e-11 1.946126e-09 6.544342e-11 -9.448417e-11 -5.041335e-11 4.024978e-10 -9.41868e-13 -4.8473992e-11
-1.1979438e-10 -7.604448e-10 -3.613745e-12 8.451289e-12 -1.3796736e-13 -1.556538e-10 -1.8367752e-13 6.7465933e-12
1.2726857e-09 -1.057709e-09 -1.056479e-11 3.7908832e-11 -8.801674e-13 -6.958064e-11 1.1215016e-10 3.3138583e-09
1.33042e-10 -1.1139512e-08 -5.690572e-10 1.7464788e-10 -1.9974864e-09 -1.9449277e-10 -7.2474626e-09 -1.0927253e-10
6.5998544e-14 -1.5867907e-10 -7.532623e-11 -3.3615745e-12 6.5688512e-09 -2.29734e-10 1.1539563e-09 -2.422005e-10
-1.2815553e-12 1.9256403e-10 -8.551885e-15 6.9743676e-14 -3.682039e-12 -6.43909e-13 -2.8951872e-09 -2.4853635e-12
1.6716183e-09 -7.0551815e-12 -5.74896e-12 6.5146395e-12 -1.0866753e-09 -4.5511202e-11 1.8047794e-09 -5.9563188e-12
2.3812121e-09 -2.7995616e-14 4.7259228e-09 -2.8724833e-11 -5.238962e-10 -2.5447574e-12 3.3878157e-11 -1.4875344e-11
-2.0820452e-09 2.7233954e-10 2.4605448e-12 -3.9115632e-13 -7.360624e-16 -1.312939e-10 -2.0322886e-09 1.48017e-09
-1.6875562e-10 1.05084785e-08 -1.793409e-13 -8.739253e-11 -1.6207467e-08 -1.9440325e-09 -5.3439775e-10 -1.0160319e-14
8.163611e-12 -5.968014e-11 2.0358283e-12 -1.9581681e-10 -4.1091375e-12 7.1789827e-12 -1.4909648e-09 3.8068637e-10
1.5833576e-10 1.6579724e-10 -1.5594283e-10 -5.2343915e-16 -1.7238416e-12 2.4945102e-10 1.4329648e-11 -2.443276e-12
5.7422315e-14 -2.4417186e-15 -1.5423931e-14 4.940691e-13 -1.0373682e-17 -1.2335598e-13 1.4192454e-13 2.2381694e-15
8.8539915e-16 -6.783646e-17 4.9048632e-14 1.432281e-16 -4.491066e-15 -4.3686335e-13 3.2838614e-13 6.4470515e-16
-1.38036496e-14 1.0618463e-17 -3.3284668e-15 2.3335762e-15 -1.7468906e-17 -9.505979e-14 -4.7096414e-14 -3.181423e-14
-8.3392826e-14 2.6850709e-14 -2.1855012e-14 2.07359e-15 -3.144111e-13 -2.0699773e-14 -4.9699195e-18 -2.092773e-15
3.060955e-14 6.819281e-14 2.5969834e-14 -2.5182737e-14 -1.3832681e-14 3.571135e-14 -3.0438486e-17 9.711924e-15
-5.781956e-14 -2.9531138e-13 -2.6957316e-16 4.785941e-16 9.182136e-18 -2.791717e-14 -1.025947e-17 -1.6030857e-15
-4.9064837e-15 -1.4612518e-13 2.159427e-15 5.60685e-15 1.5710862e-15 -1.4372532e-15 3.766268e-15 1.4684607e-12
-1.4457304e-16 -2.0534251e-12 -7.381218e-14 8.000093e-15 -4.6881976e-14 -9.6533994e-14 -2.8471392e-12 -3.8168348e-14
5.780661e-18 -4.2560888e-14 -1.1495961e-14 5.312861e-16 5.5886773e-13 2.1302482e-14 1.04009425e-13 7.846669e-14
-2.8998431e-15 -3.8950797e-15 1.1496361e-18 -2.8026004e-18 1.2785508e-16 1.8893057e-16 -7.402124e-13 -3.2708228e-16
-5.5479797e-14 -7.9150104e-15 8.641702e-16 3.3935454e-16 -1.13554524e-13 8.0746865e-14 1.5641333e-13 6.448966e-15
2.3553005e-14 3.7699493e-18 -9.771279e-14 5.016698e-15 -8.556913e-14 -1.0496639e-16 3.749066e-15 1.789384e-15
-6.98712e-13 -9.279276e-15 4.8698985e-17 -3.4019458e-16 2.719898e-19 -2.2209644e-15 -3.833754e-13 5.496493e-14
1.3499985e-15 1.2344594e-12 1.0225721e-17 4.8766492e-14 -3.119746e-12 -9.676546e-13 -9.9103295e-15 -1.3808034e-18
-4.10517e-15 3.918191e-15 2.239084e-18 -6.1660766e-14 3.748157e-16 -1.3771372e-15 -5.50739e-14 4.470232e-16
-1.7170405e-13 5.1321594e-14 -6.789129e-14 1.1816995e-19 -1.0740432e-15 8.476202e-14 2.8652525e-16 1.7328141e-16
00000000: c53e de30 565d 24ad 01a7 96ae 14dc 9d31
00000010: 22a9 81aa 58bf 1330 b573 af30 78b8 052c
00000020: 794f 392d ae16 0b2a 8d66 c12e e7a5 68ac
00000030: 4077 d1ae d78d ba31 68db 8531 d3a4 022d
00000040: ded3 96ae 7576 30aa 94b6 9dad b3e8 2ead
00000050: 1858 272a 6516 f3b0 c4a8 e130 dcb0 0630
00000060: 490f 5cb1 e493 4a2f 58ff 89ae 92eb 452d
00000070: 6b11 1db1 0cde 612d e4fb 3e28 d759 12ad
00000080: bd74 9eae 9cbc 0531 5fe9 8f2e dcc5 cfae
00000090: 63b8 5dae 8846 dd2f 5f8e 84ab dd30 55ae
000000a0: 1fb7 03af 8c07 51b0 714b 7eac 39ad 142d
000000b0: 6256 1baa a624 2baf 71cd 4eaa e95f ed2c
000000c0: a6ea ae30 d45e 91b0 96db 39ad 8db9 262e
000000d0: bfbe 77ab 6b02 99ae ed9e f62e 03ba 6331
000000e0: fe47 122f 1860 3fb2 d76b 1cb0 0207 402f
000000f0: 2744 09b1 d9d8 55af 5b05 f9b1 f74a f0ae
00000100: 929d 9429 3078 2eaf e6a4 a5ae be8c 6cac
00000110: 3ab4 e131 5f98 7caf 3a99 9e30 b126 85af
00000120: e55c b4ab f5b9 532f 9c0e 1aa8 7e0c 9d29
00000130: dc8c 81ac 893e 35ab acf4 46b1 54e4 2eac
00000140: d7be e530 6d3b f8ac 0746 caac a836 e52c
00000150: fd59 95b0 0f29 48ae 080c f830 c091 d1ac
00000160: baa2 2331 7f29 fca8 a861 a231 93aa fcad
00000170: eb01 10b0 4612 33ac 6aff 142e 4cd8 82ad
00000180: ba13 0fb1 62b8 952f 3c25 2d2c 9133 dcaa
00000190: d227 54a6 f35b 10af 66a8 0bb1 da6e cb30
000001a0: 7c8c 39af c788 3432 7feb 49aa 9f2d c0ae
000001b0: 9938 8bb2 c897 05b1 e6e4 12b0 3308 37a8
000001c0: a39d 0f2d ef3c 83ae 3942 0f2c 884d 57af
000001d0: d293 90ac 8796 fc2c a9ea ccb0 d848 d12f
000001e0: 8e17 2e2f c64b 362f 0176 2baf fede 16a6
000001f0: f09b f2ab 1c23 892f ff16 7c2d 26ee 2bac
00000200: b64d 8129 c2f1 2fa7 2aed 8aa8 6e11 0b2b
00000210: 545c 3fa3 f1e2 0aaa f7ca 1f2a f046 2127
00000220: ed32 7f26 946b 9ca4 39e5 5c29 7921 2525
00000230: c6ce a1a7 a5ee f5aa 6edd b82a d8d2 3926
00000240: 19aa 78a8 46e0 4323 60d7 6fa7 e226 2827
00000250: 4a1f a1a3 3d0e d6a9 781a 54a9 4f47 0fa9
00000260: b1c8 bba9 85d9 f128 3ada c4a8 fc6a 1527
00000270: 6aff b0aa 6d72 baa8 905b b7a2 d9cc 16a7
00000280: 69da 0929 7b8e 9929 5cea e928 70d3 e2a8
00000290: fb2f 79a8 62d4 2029 6c5f 0ca4 58f4 2e28
000002a0: b532 82a9 db3e a6aa fa65 9ba5 03f2 0926
000002b0: 6961 2923 9c74 fba8 fa40 3da3 6c07 e7a6
000002c0: 53c6 b0a7 b785 24aa 669a 1b27 1002 ca27
000002d0: da6a e226 4921 cfa6 b1b1 8727 dfaa ce2b
000002e0: 6eae 26a5 387f 10ac d335 a6a9 eb1d 1028
000002f0: 3d23 53a9 0f60 d9a9 8059 48ac 1ce5 2ba9
00000300: cd44 d522 5dad 3fa9 c317 4fa8 ff21 1926
00000310: aa4e 1d2b 2ee0 bf28 5a35 ea29 f8b0 b029
00000320: aaf4 50a7 c555 8ca7 06a8 a921 a0cb 4ea2
00000330: 2968 1325 76d2 5925 ed59 50ab d38c bca5
00000340: dadb 79a9 8b95 0ea8 8214 7926 e49f c325
00000350: bab3 ffa9 66d3 b529 131b 302a 3659 e827
00000360: 8825 d428 2a16 8b22 9707 dca9 dfbe b427
00000370: 3faf c0a9 3809 f2a4 0813 8727 4ff0 0027
00000380: 81ab 44ab 1b29 27a8 9d95 6024 dc1b c4a5
00000390: f08d a020 9009 20a7 38d2 d7aa 408a 7729
000003a0: 278e c226 16bc ad2b 9aa1 3c23 f09f 5b29
000003b0: 5988 5bac 6e2f 88ab 5487 32a8 47c5 cba1
000003c0: 83e7 93a7 ef2a 8d27 1a37 2522 03d9 8aa9
000003d0: 0911 d825 6577 c6a6 e207 78a9 7ed8 0026
000003e0: 5352 41aa c521 6729 aae0 98a9 ad82 0b20
000003f0: 33c9 9aa6 fadd be29 aa2b a525 a5c7 4725

module.lstm.bias_ih_l0 f4 [512]
-4.655851e-06 -1.0495735e-09 -1.0516624e-07 -7.966702e-05 -7.13385e-14 -4.1223107e-06 -1.970634e-06 -3.4830673e-11
-1.3470535e-09 -8.7849134e-13 -1.6219545e-08 -2.5349445e-11 -2.5728564e-09 -6.646514e-05 -4.1401523e-05 -1.6899218e-11
-1.2463298e-07 -3.6596282e-14 -2.574194e-09 -5.5688393e-10 -6.436824e-14 -2.3400987e-06 -5.3976773e-06 -1.3915192e-06
-1.5654154e-05 -7.3608487e-07 -1.8544182e-07 -6.303891e-10 -2.375615e-05 -1.09317435e-08 -6.1922735e-16 1.1141518e-11
-1.2033253e-07 -3.5500394e-05 -3.986919e-07 -1.2753483e-07 -2.9270034e-08 -9.871238e-07 -1.6656966e-12 -8.475978e-08
-2.819727e-07 -1.04593555e-05 -1.1331267e-11 -1.0318541e-10 -2.6738965e-14 -6.388974e-08 -2.7777058e-14 -1.4731856e-11
-1.0662186e-05 -1.890958e-05 -1.960594e-10 -5.1641402e-09 -1.8255215e-09 -3.602565e-09 -1.739684e-08 -8.611458e-05
-8.154484e-08 -0.0002372402 -1.5207963e-06 -3.8822243e-08 -2.2848331e-05 -1.8584069e-06 -0.00011069125 -2.6091092e-08
-7.0956073e-15 -3.3018875e-07 -5.6702145e-08 -6.6190807e-12 -0.00011780125 -1.4090281e-07 -7.386649e-06 -1.550629e-07
-2.4854882e-10 -3.2944155e-07 -2.628382e-16 -4.6179453e-15 -7.388403e-10 -7.7964284e-13 -0.00010384793 -1.792355e-11
-2.0265239e-05 -3.8802836e-09 -4.041772e-11 -6.8555675e-11 -8.6457285e-06 -7.490598e-07 -4.0403433e-05 -7.919375e-10
-2.3373366e-05 -3.3914795e-15 -0.00010903623 -3.1630987e-09 -2.4069456e-07 -1.4287667e-12 -1.6274257e-08 -5.5079435e-10
-1.7428469e-05 -7.7234466e-07 -1.8550148e-12 -1.5351791e-11 -5.793351e-19 -1.0094389e-08 -2.7599832e-05 -1.1431422e-05
-5.8409903e-08 -0.00021586887 -8.644857e-14 -1.6233922e-06 -0.0004340407 -1.5481415e-05 -3.8183634e-07 -1.7822293e-16
-1.2230635e-10 -6.4031186e-10 -4.4450974e-13 -8.0393926e-07 -9.007043e-12 -2.4832947e-10 -9.642013e-06 -8.7298764e-07
-1.4460584e-06 -1.1577386e-07 -7.5115e-07 -4.2974015e-19 -2.7549016e-10 -6.1481836e-07 -4.4594187e-10 -3.8530043e-12
-4.027852e-06 -8.065389e-10 -8.54367e-08 -9.417771e-05 -9.806363e-14 -1.2710555e-05 -1.6625422e-06 2.5441666e-11
-9.096346e-10 -6.204183e-13 -1.1049248e-08 4.370561e-12 2.3724747e-09 3.870048e-05 -5.2409054e-05 3.1322476e-11
-1.3017272e-07 6.534721e-14 -1.796151e-09 -8.546331e-10 -6.360466e-14 -3.961233e-06 -1.3228016e-05 -1.0273304e-06
-2.9319974e-05 -6.1921315e-07 -5.1653234e-07 -1.6596429e-09 -1.5534557e-05 -2.0495083e-08 5.473227e-16 -1.499026e-10
-2.3623393e-08 -3.7246773e-05 -3.556667e-07 -1.2139655e-07 -5.8660763e-08 -1.0404846e-06 -3.498029e-13 -8.396084e-08
-3.092548e-07 -1.619863e-05 -5.7815315e-12 2.0576868e-11 3.1489504e-14 -5.551237e-08 -7.293943e-14 -1.8089858e-11
-1.2799341e-05 -1.636254e-05 -4.4778026e-10 -3.5133954e-09 -1.6108227e-09 -4.977683e-09 -5.4798118e-08 -7.957507e-05
1.5950835e-08 -0.00026781912 -1.359379e-06 -6.602619e-08 -2.6431673e-05 -1.7453737e-06 -0.00013506877 -7.377151e-08
1.0267921e-15 -2.556162e-07 -7.412678e-08 -1.4880812e-11 -0.00011751546 -1.721842e-07 -6.227305e-06 -7.829436e-08
-1.043984e-10 -3.79234e-07 -4.376768e-17 2.8517254e-16 -6.7510547e-10 7.2473885e-13 -9.7015014e-05 -4.8256117e-12
-1.22788915e-05 -1.09551195e-08 -9.625064e-11 1.073423e-10 -7.3986125e-06 -6.2271494e-07 -4.807581e-05 -8.025981e-10
-2.1501986e-05 -3.4609597e-15 3.095345e-05 -3.1218401e-09 -1.9601757e-07 3.0637576e-12 -1.6706897e-08 -7.4761014e-10
-3.745739e-05 -1.336538e-06 -2.0216832e-12 -2.9967338e-11 9.126563e-19 -8.385724e-09 -2.4106437e-05 -1.2750633e-05
-6.780907e-08 -0.00020148384 3.8851724e-14 -2.1910525e-06 -0.00042906776 -3.9962677e-05 -4.282874e-07 1.1707806e-16
-9.809421e-12 -7.1708595e-10 9.0114456e-13 -9.2522384e-07 1.316007e-12 6.41611e-11 7.792558e-06 -6.570834e-07
-1.6937989e-06 -1.3965851e-07 -1.3236644e-06 4.7722035e-19 -2.6480526e-10 -5.123233e-07 -3.1161076e-10 -5.061239e-12
00000000: 7539 9cb6 9640 90b0 c0d7 e1b3 e812 a7b8
00000010: d8a3 a0a9 6152 8ab6 3c3f 04b6 da2f 19ae
00000020: 3b23 b9b0 f945 77ab 2853 8bb2 e0f9 dead
00000030: 2bce 30b1 3363 8bb8 8ca6 2db8 a8a5 94ad
00000040: dad2 05b4 a4d0 24a9 b3e5 30b1 3913 19b0
00000050: c4f1 90a9 970a 1db6 b21d b5b6 3cc4 bab5
00000060: 0a51 83b7 5e97 45b5 dc1d 47b4 b047 2db0
00000070: f247 c7b7 51ce 3bb2 ea7a 32a6 f000 442d
00000080: c134 01b4 42e6 14b8 cc0b d6b4 82f0 08b4
00000090: 7c6d fbb2 517d 84b5 0b6d eaab 2f05 b6b3
000000a0: 0862 97b4 977a 2fb7 7d57 47ad 39e8 e2ae
000000b0: dbd7 f0a8 c233 89b3 8931 faa8 3195 81ad
000000c0: bde1 32b7 04a0 9eb7 d191 57af 4270 b1b1
000000d0: d4e5 fab0 fe90 77b1 0e70 95b2 6a98 b4b8
000000e0: c01d afb3 aec3 78b9 2a1e ccb5 82bd 26b3
000000f0: 6baa bfb7 606e f9b5 ea22 e8b8 eb1e e0b2
00000100: 6da5 ffa7 cc44 b1b4 ab88 73b3 61e3 e8ac
00000110: 110c f7b8 124b 17b4 d5da f7b6 5e7f 26b4
00000120: 23a4 88af 1ade b0b4 1284 97a5 0761 a6a7
00000130: 4417 4bb0 3073 5bab efc8 d9b8 3fa8 9dad
00000140: 45ff a9b7 5653 85b1 4fc2 31ae 6ac1 96ae
00000150: 1f0d 11b7 ff12 49b5 db76 29b8 a6af 59b0
00000160: ec11 c4b7 c161 74a7 61aa e4b8 d25d 59b1
00000170: cf38 81b4 bf14 c9ab 78cb 8bb2 b566 17b0
00000180: 5a33 92b7 1f53 4fb5 fa88 02ac 2909 87ad
00000190: 53fd 2aa1 986b 2db2 3086 e7b7 95c9 3fb7
000001a0: 5ede 7ab3 dc5a 62b9 35aa c2a9 55e3 d9b5
000001b0: f58f e3b9 16de 81b7 30ff ccb4 207a 4da5
000001c0: 2d7a 06af f101 30b0 9b3c faaa 49ce 57b5
000001d0: 1e74 1ead 4485 88af 21c4 21b7 4157 6ab5
000001e0: 3016 c2b5 5a9f f8b3 a3a2 49b5 7fac fda0
000001f0: cb73 97af ff09 25b5 bd28 f5af c790 87ac
00000200: fc26 87b6 21b3 5db0 5379 b7b3 4681 c5b8
00000210: d5d1 dca9 6b3f 55b7 8424 dfb5 8ac9 df2d
00000220: d809 7ab0 daa1 2eab 1bd3 3db2 84c6 992c
00000230: 0409 2331 5352 2238 cbd1 5bb8 f9c1 092e
00000240: 9bc5 0bb4 1a26 9329 72dc f6b0 75eb 6ab0
00000250: 9739 8fa9 bbea 84b6 e5ed 5db7 cee2 89b5
00000260: 2af4 f5b7 0138 26b5 d5a7 0ab5 7e19 e4b0
00000270: 3550 82b7 2a0d b0b2 49c1 1d26 d5d1 24af
00000280: 64ec cab2 6b39 1cb8 76f2 beb4 3b59 02b4
00000290: 31f2 7bb3 c7a6 8bb5 e9eb c4aa f64d b4b3
000002a0: a807 a6b4 4be2 87b7 686b cbac fdfe b42d
000002b0: edd0 0d29 7f6c 6eb3 b83e a4a9 bd1e 9fad
000002c0: c0bc 56b7 4942 89b7 782b f6af 4e70 71b1
000002d0: c963 ddb0 2a08 abb1 2b5b 6bb3 8ae1 a6b8
000002e0: 4204 8932 136a 8cb9 e873 b6b5 48ca 8db3
000002f0: 96b9 ddb7 9542 eab5 3fa1 0db9 516c 9eb3
00000300: f1f9 9326 9f3b 89b4 a12f 9fb3 9ce4 82ad
00000310: a272 f6b8 a2e1 38b4 25f4 d0b6 c822 a8b3
00000320: 1393 e5ae 8699 cbb4 c2d7 49a4 0a64 a425
00000330: 5392 39b0 f0fe 4b2b 8a74 cbb8 3fc9 a9ac
00000340: 7001 4eb7 2035 3cb2 4ba8 d3ae 580c ec2e
00000350: 9941 f8b6 a528 27b5 02a5 49b8 d29d 5cb0
00000360: 2a5f b4b7 7063 79a7 04d4 0138 fe87 56b1
00000370: e678 52b4 c097 572c db82 8fb2 6380 4db0
00000380: 911b 1db8 1963 b3b5 6843 0eac 39cc 03ae
00000390: 2eaf 8621 ce10 10b2 2e38 cab7 8deb 55b7
000003a0: 6e9e 91b3 6845 53b9 fdf8 2e29 ff09 13b6
000003b0: 80f4 e0b9 999d 27b8 5fef e5b4 58fb 0625
000003c0: b491 2cad 701c 45b0 4fa6 7d2b e65c 78b5
000003d0: 2636 b92b 7d17 8d2e c8bc 0237 6d62 30b5
000003e0: 7d56 e3b5 0af5 15b4 c3a8 b1b5 c0d9 0c21
000003f0: 0794 91af 9786 09b5 514f abaf 9713 b2ac

module.lstm.bias_hh_l0 f4 [512]
-4.6574155e-06 -1.0485209e-09 -1.0504434e-07 -7.967023e-05 -7.1179363e-14 -4.123764e-06 -1.9751812e-06 -3.4774603e-11
-1.3466445e-09 -8.775485e-13 -1.615992e-08 -2.5345753e-11 -2.552413e-09 -6.672158e-05 -4.1410094e-05 -1.6970094e-11
-1.2456093e-07 -3.6659122e-14 -2.5728417e-09 -5.5645133e-10 -6.433469e-14 -2.3386194e-06 -5.4039915e-06 -1.390149e-06
-1.5652988e-05 -7.3611955e-07 -1.8538043e-07 -6.3065925e-10 -2.3751421e-05 -1.091313e-08 -6.2355866e-16 1.1174838e-11
-1.1890666e-07 -3.5493496e-05 -3.9969515e-07 -1.2758825e-07 -2.92686e-08 -9.864201e-07 -1.6662962e-12 -8.4966224e-08
-2.8232304e-07 -1.0455419e-05 -1.1327886e-11 -1.0313533e-10 -2.669773e-14 -6.404328e-08 -2.7738964e-14 -1.4827974e-11
-1.0663e-05 -1.890785e-05 -1.9706296e-10 -5.16664e-09 -1.8246031e-09 -3.6018761e-09 -1.7398392e-08 -8.612025e-05
-8.154872e-08 -0.00023725163 -1.5229181e-06 -3.881575e-08 -2.2844744e-05 -1.8588537e-06 -0.00011067697 -2.6092042e-08
-7.0962735e-15 -3.300542e-07 -5.681409e-08 -6.6161057e-12 -0.000117788026 -1.4083234e-07 -7.38286e-06 -1.5506552e-07
-2.4881916e-10 -3.2939113e-07 -2.6304987e-16 -4.6179135e-15 -7.4033e-10 -7.823035e-13 -0.00010385355 -1.7801826e-11
-2.0264186e-05 -3.8874943e-09 -4.009475e-11 -6.848939e-11 -8.645293e-06 -7.492741e-07 -4.041416e-05 -7.922588e-10
-2.3372608e-05 -3.3904607e-15 -0.00010960116 -3.166739e-09 -2.4127002e-07 -1.420778e-12 -1.6166753e-08 -5.5061866e-10
-1.7424902e-05 -7.728252e-07 -1.858959e-12 -1.5340725e-11 -5.8751563e-19 -1.0094748e-08 -2.759097e-05 -1.1427434e-05
-5.8413878e-08 -0.00021586793 -8.64623e-14 -1.6241073e-06 -0.0004413304 -1.5483309e-05 -3.8137097e-07 -1.7820489e-16
-1.2238308e-10 -6.3161065e-10 -4.4341007e-13 -8.036056e-07 -9.007844e-12 -2.483398e-10 -9.643682e-06 -8.733243e-07
-1.4463166e-06 -1.1642425e-07 -7.511846e-07 -4.3120656e-19 -2.7521227e-10 -6.148582e-07 -4.478642e-10 -3.8543396e-12
-4.0272503e-06 -8.0933643e-10 -8.5448654e-08 -9.418004e-05 -1.0103225e-13 -1.2710763e-05 -1.6652546e-06 2.5582113e-11
-9.088262e-10 -6.2159674e-13 -1.0997056e-08 3.804735e-12 2.3890772e-09 3.8296002e-05 -5.2405638e-05 3.1269903e-11
-1.3024676e-07 6.697461e-14 -1.792462e-09 -8.5494534e-10 -6.4596576e-14 -3.968891e-06 -1.3196575e-05 -1.0273146e-06
-2.8842062e-05 -6.1962623e-07 -5.1646794e-07 -1.6594202e-09 -1.5533957e-05 -2.0508104e-08 5.462831e-16 -1.505271e-10
-2.3596728e-08 -3.7245907e-05 -3.5559978e-07 -1.2174704e-07 -5.8773733e-08 -1.0428553e-06 -3.7697157e-13 -8.389069e-08
-3.0926665e-07 -1.62003e-05 -5.897736e-12 2.0740559e-11 3.1623108e-14 -5.5515454e-08 -7.309346e-14 -1.8112617e-11
-1.279873e-05 -1.6357126e-05 -4.4879503e-10 -3.5164331e-09 -1.6107728e-09 -4.974011e-09 -5.5137274e-08 -7.9567355e-05
1.518628e-08 -0.00026779037 -1.3592988e-06 -6.597411e-08 -2.642171e-05 -1.7476096e-06 -0.00013506698 -7.375787e-08
1.0081615e-15 -2.5549343e-07 -7.3644195e-08 -1.4964108e-11 -0.00011752012 -1.7144225e-07 -6.228097e-06 -7.634052e-08
-1.04060906e-10 -3.7955752e-07 -4.3729198e-17 6.421141e-17 -6.7753675e-10 7.3723287e-13 -9.701379e-05 -4.76374e-12
-1.228017e-05 -1.0956239e-08 -9.6029455e-11 1.0762294e-10 -7.398816e-06 -6.239433e-07 -4.8064423e-05 -8.037136e-10
-2.1502537e-05 -3.4962577e-15 3.0982963e-05 -3.1254421e-09 -1.961938e-07 3.063439e-12 -1.6705291e-08 -7.46427e-10
-3.745762e-05 -1.3365325e-06 -2.0366007e-12 -2.9965246e-11 8.627205e-19 -8.253879e-09 -2.4108203e-05 -1.2749973e-05
-6.780439e-08 -0.00020147704 3.848462e-14 -2.1896124e-06 -0.00043348374 -3.996274e-05 -4.2700495e-07 1.1730084e-16
-9.8160985e-12 -7.2127393e-10 9.102822e-13 -9.266474e-07 1.3482999e-12 6.286859e-11 7.6545e-06 -6.5699834e-07
-1.6926087e-06 -1.3876004e-07 -1.3230673e-06 4.7708076e-19 -2.6488764e-10 -5.124009e-07 -3.1136507e-10 -5.0617882e-12
00000000: e546 9cb6 8d1b 90b0 bd94 e1b3 a114 a7b8
00000010: 1c48 a0a9 dd5e 8ab6 5b8d 04b6 b9f0 18ae
00000020: d714 b9b0 0902 77ab 0ad0 8ab2 90f1 dead
00000030: 8666 2fb1 e0ec 8bb8 c0af 2db8 4145 95ad
00000040: 0cbf 05b4 1719 25a9 e9cd 30b1 c8f4 18b0
00000050: 6cde 90a9 2df1 1cb6 ef53 b5b6 2895 bab5
00000060: 894e 83b7 c099 45b5 fc0c 47b4 b35a 2db0
00000070: ca3d c7b7 747c 3bb2 82ba 33a6 ff96 442d
00000080: a159 ffb3 dade 14b8 af95 d6b4 31ff 08b4
00000090: 556a fbb2 2365 84b5 a682 eaab ad76 b6b3
000000a0: 2f92 97b4 af69 2fb7 4348 47ad 07cc e2ae
000000b0: c678 f0a8 2a88 89b3 b2d9 f9a8 a16d 82ad
000000c0: 3ce5 32b7 4c9c 9eb7 4bac 58af 3f86 b1b1
000000d0: 84c5 fab0 e084 77b1 7873 95b2 759b b4b8
000000e0: e21f afb3 c0c6 78b9 1167 ccb5 5eb6 26b3
000000f0: b7a2 bfb7 ba7d f9b5 3f1b e8b8 0221 e0b2
00000100: 92ab ffa7 4e32 b1b4 c103 74b3 95c8 e8ac
00000110: f704 f7b8 b337 17b4 49ba f7b6 1680 26b4
00000120: 2fca 88af 2cd7 b0b4 4fa3 97a5 bc60 a6a7
00000130: 1880 4bb0 e832 5cab f3cb d9b8 2696 9cad
00000140: 02fd a9b7 c392 85b1 ad56 30ae 199c 96ae
00000150: 400b 11b7 b921 49b5 6082 29b8 42c6 59b0
00000160: 4b10 c4b7 f64e 74a7 add9 e5b8 dd9d 59b1
00000170: e687 81b4 ecf4 c7ab 11df 8ab2 585a 17b0
00000180: b12b 92b7 2574 4fb5 07d0 02ac 3ef0 86ad
00000190: 6d67 2da1 2c6d 2db2 2873 e7b7 75b8 3fb7
000001a0: bde2 7ab3 9b5a 62b9 1fb2 c2a9 e7fb d9b5
000001b0: 5d62 e7b9 27e2 81b7 3abf ccb4 cd74 4da5
000001c0: c68f 06af a69d 2db0 209e f9aa 5bb7 57b5
000001d0: b977 1ead b886 88af 4ccb 21b7 646e 6ab5
000001e0: 0f1f c2b5 e904 fab3 03a5 49b5 188a fea0
000001f0: af4c 97af bc0c 25b5 4837 f6af ce9c 87ac
00000200: d121 87b6 fd77 5eb0 e57f b7b3 8682 c5b8
00000210: 2081 e3a9 5040 55b7 b681 dfb5 cc05 e12d
00000220: f5d0 79b0 c4f6 2eab 90ed 3cb2 02de 852c
00000230: 172d 2431 05a0 2038 20ce 5bb8 c886 092e
00000240: f5d9 0bb4 3cd0 9629 a65a f6b0 6e01 6bb0
00000250: 6475 91a9 842c 85b6 dc66 5db7 43e2 89b5
00000260: dbf1 f1b7 6454 26b5 68a3 0ab5 a811 e4b0
00000270: eb4e 82b7 cc29 b0b2 9474 1d26 9d81 25af
00000280: c1b1 cab2 7d38 1cb8 43e9 beb4 92b9 02b4
00000290: 676e 7cb3 3cf8 8bb5 5437 d4aa 6527 b4b3
000002a0: 4909 a6b4 e1e5 87b7 1582 cfac 966f b62d
000002b0: f66a 0e29 e36f 6eb3 8397 a4a9 fd51 9fad
000002c0: 20ba 56b7 a936 89b7 49ba f6af bfa5 71b1
000002d0: 0862 ddb0 dde7 aab1 13d0 6cb3 66dd a6b8
000002e0: fc72 8232 3766 8cb9 2771 b6b5 a7ad 8db3
000002f0: 31a4 ddb7 698f eab5 c4a0 0db9 d164 9eb3
00000300: 984a 9126 c02a 89b4 5326 9eb3 2da0 83ad
00000310: 2275 f6b8 b015 38b4 f2fa d0b6 a5f0 a3b3
00000320: 15d5 e4ae fdc5 cbb4 53aa 49a4 ba0f 9424
00000330: 693d 3ab0 3a83 4f2b e273 cbb8 f59b a7ac
00000340: ee06 4eb7 0c3a 3cb2 c72b d3ae 54aa ec2e
00000350: 5843 f8b6 0f7d 27b5 c898 49b8 51ec 5cb0
00000360: 5960 b4b7 92ee 7ba7 b4f3 0138 5cc7 56b1
00000370: 57a9 52b4 0392 572c 537f 8fb2 212d 4db0
00000380: d01b 1db8 e862 b3b5 2350 0fac dec9 03ae
00000390: 51a1 7e21 f2cc 0db2 f93b cab7 b8e8 55b7
000003a0: dc9b 91b3 9543 53b9 bf51 2d29 41f1 12b6
000003b0: 3445 e3b9 aa9d 27b8 1d3f e5b4 193d 0725
000003c0: c7af 2cad 2443 46b0 5f1c 802b b9be 78b5
000003d0: a0c1 bd2b df3f 8a2e d46b 0037 955c 30b5
000003e0: 982d e3b5 12fe 14b4 3f94 b1b5 34cf 0c21
000003f0: 9f9f 91af ec8b 09b5 bd2c abaf 8918 b2ac

module.lstm.weight_ih_l1 f4 [512, 128]
-1.0069958e-08 -1.6477891e-10 1.1376771e-09 -5.9136593e-08 -2.8239563e-13 3.4283714e-09 1.8023031e-09 -5.910336e-11
-5.3749116e-10 -2.0723293e-11 -2.701624e-09 1.3512415e-10 1.5486952e-09 -2.3466762e-07 4.810579e-08 -4.1590526e-11
6.648342e-10 6.9285007e-12 1.2250896e-10 1.6824678e-10 -8.231687e-12 -7.61574e-09 -3.447289e-09 2.1405697e-08
3.6768895e-08 1.2207573e-08 3.6315634e-10 -3.007528e-10 -6.6137666e-08 5.602005e-11 -1.2224631e-12 2.8666863e-10
-1.7331648e-09 5.9128336e-08 -4.386936e-09 4.215659e-10 -5.5842147e-11 -1.1052653e-09 2.992286e-11 -1.0810484e-09
5.7674526e-10 6.628825e-08 1.7806425e-11 -2.479805e-10 4.704654e-12 -2.04238e-09 2.1450057e-12 -3.963562e-12
4.38988e-08 -5.225845e-09 5.115715e-11 -1.2567924e-09 2.9222166e-10 6.705609e-10 -3.1935259e-09 1.4747829e-08
-1.13008e-08 -2.8222144e-07 -7.913971e-09 -1.3457923e-09 1.4872934e-08 -6.3157515e-09 -6.6186274e-08 1.5093821e-09
-2.6998924e-12 1.7030926e-09 2.1015661e-10 1.7019889e-11 -1.4935372e-09 8.115076e-09 9.745639e-10 9.233444e-09
3.6363562e-10 4.4084376e-09 -5.003561e-13 -1.6792047e-12 5.7721855e-10 1.2339202e-11 9.9754995e-09 5.4153026e-11
3.852377e-08 -8.69155e-10 1.5580982e-10 -2.0935104e-10 -3.058852e-08 -3.1998748e-09 1.2055162e-07 -4.721703e-11
4.1903736e-08 9.27573e-13 -4.1502645e-07 1.3453332e-09 -7.9671745e-09 4.9793728e-11 -1.8676974e-10 3.644604e-11
2.4434227e-08 6.0431753e-09 -2.1235763e-11 1.3816662e-11 1.6713009e-14 2.4683264e-11 -4.7100997e-08 1.1461049e-08
1.6596852e-09 1.6922596e-07 1.2766608e-11 -1.913142e-09 -7.510437e-07 -3.9868098e-08 2.8756755e-09 4.578579e-13
-2.5083396e-10 8.9031393e-10 -3.986701e-12 -1.0505201e-09 4.8640272e-11 -5.2658616e-10 8.8820116e-08 4.2430726e-09
-8.9462e-10 7.76367e-09 8.128047e-09 2.4319317e-14 4.8474048e-11 2.976067e-09 -1.8477608e-10 5.311094e-11
4.839074e-08 9.210959e-11 -5.7697624e-09 3.8137628e-07 1.1965138e-12 3.2936022e-08 2.2008598e-08 1.6983952e-10
1.3166908e-09 4.061281e-11 7.0239072e-09 -3.2681674e-10 -3.4388103e-09 5.4678407e-07 7.177384e-08 -4.5081374e-12
-3.9162433e-09 -1.5576698e-11 -4.0779013e-10 -1.8783342e-10 1.930162e-11 -1.34836196e-08 1.647981e-08 -1.770698e-08
-8.189368e-08 -1.9645471e-08 3.2844372e-09 6.3519373e-10 1.449789e-11 1.1928021e-09 2.5874767e-12 -6.355137e-10
-2.1783113e-10 2.9736215e-08 1.3337902e-08 -4.377087e-09 -1.0818887e-09 7.82924e-09 -6.994211e-11 5.5379046e-10
-4.760069e-09 -6.5342796e-08 -4.84326e-11 5.379103e-10 -1.0113688e-11 1.2223399e-09 -4.3121626e-12 7.153151e-11
-3.9839154e-08 -1.9160003e-08 -1.6281633e-10 3.298955e-09 -3.6898828e-10 -1.4602829e-09 7.08591e-09 1.1985112e-07
2.6469108e-08 1.13711394e-07 5.7270393e-09 1.7853765e-09 -1.3622667e-07 -1.0840069e-09 -1.07456e-07 -3.82579e-09
6.5196555e-12 -1.0059062e-08 -2.072195e-09 -3.8120784e-11 2.9278138e-07 -1.5990855e-08 4.261439e-08 -2.2306285e-08
-5.6664445e-10 -3.3933623e-09 7.5931796e-13 3.5973115e-12 -1.0470631e-09 -3.638376e-11 -2.0164035e-07 -8.99866e-11
-7.3402857e-09 1.2119865e-09 -3.421318e-10 4.9407733e-10 2.9337139e-08 1.2089303e-08 -1.2529816e-07 2.2594303e-10
-2.3420428e-08 -2.7183206e-12 9.2676805e-07 -2.9718603e-09 7.567753e-09 -1.1173349e-10 1.4638989e-09 -3.1742284e-10
-9.183869e-08 -3.3863243e-10 5.228478e-11 2.4767188e-11 -4.1600366e-14 -1.0694957e-09 2.0729384e-08 1.3575984e-08
-2.4712765e-09 5.965535e-08 -2.9570856e-11 -4.5319224e-09 6.7812965e-07 1.9492385e-08 -1.0295898e-08 -1.0259253e-12
6.762096e-10 -1.9214186e-09 3.8034888e-12 -4.8896136e-09 -1.2371314e-10 1.2456217e-09 -2.0253505e-07 1.1728585e-09
-1.0517011e-08 -1.3122491e-08 -4.9965867e-09 -5.3608437e-14 -1.8769863e-10 6.4563834e-09 5.400677e-10 -1.3018527e-10
00000000: 2500 2db2 242d 35af 745c 9c30 5ffd 7db3
00000010: 80f9 9eaa 8c98 6b31 e7b4 f730 3cf8 81ae
00000020: 94be 13b0 b548 b6ad 79a7 39b1 1192 142f
00000030: ded9 d430 f2f8 7bb4 e09c 4e33 c5ea 36ae
00000040: 8cbf 3630 63c6 f32c 35b3 062f 42fd 382f
00000050: 39d0 10ad 61d6 02b2 59e5 6cb1 a0df b732
00000060: d4eb 1d33 79b9 5132 b6a5 c72f 3257 a5af
00000070: 9107 8eb3 f860 762e e00b acab 0699 9d2f
00000080: 5134 eeb0 4bf4 7d33 e6bb 96b1 20c2 e72f
00000090: ab98 75ae 11e8 97b0 259a 032e 0294 94b0
000000a0: d788 1e30 5a5a 8e33 81a0 9c2d 2754 88af
000000b0: c287 a52c ee59 0cb1 fdf0 162c 9874 8bac
000000c0: 3e8b 3c33 058f b3b1 d5fd 602e 74bb acb0
000000d0: 8ba6 a02f 8752 3830 1a75 5bb1 a35d 7d32
000000e0: 7225 42b2 3884 97b4 03f6 07b2 dbf6 b8b0
000000f0: db83 7f32 f001 d9b1 4a22 8eb3 a972 cf30
00000100: f0fc 3dac 3e12 ea30 d411 672f 62b5 952d
00000110: 2b45 cdb0 7b6a 0b32 6bf1 8530 1ea1 1e32
00000120: 2ae9 c72f 0779 9731 75d6 0cab ba53 ecab
00000130: 25aa 1e30 d312 592d b660 2b32 e32a 6e2e
00000140: 5575 2533 59e9 6eb0 9150 2b2f 142f 66af
00000150: 6f60 03b3 cbe4 5bb1 fa70 0134 a6a9 4fae
00000160: a5f9 3333 578b 822b cdd0 deb4 b4e6 b830
00000170: 01e0 08b2 c1fe 5a2e 025b 4daf 984a 202e
00000180: 6fe3 d132 55a4 cf31 b0ca baad b710 732d
00000190: 9389 9628 c51d d92d 184c 4ab3 3ae6 4432
000001a0: fb1a e430 7ab4 3534 b197 602d 5a78 03b1
000001b0: 549b 49b5 703b 2bb3 6b9d 4531 24e0 002b
000001c0: bee5 89af 46ba 7430 0345 8cac e461 90b0
000001d0: 14ec 552e 35bf 10b0 60bd be33 76ca 9131
000001e0: 49e9 75b0 fb60 0532 87a3 0b32 870c db28
000001f0: ed30 552e 8683 4c31 d829 4baf 9a95 692e
00000200: 2ed6 4f33 178d ca2e 5e3f c6b1 f5bf cc34
00000210: f464 a82b 8a75 0d33 6b0d bd32 93bd 3a2f
00000220: f0f6 b430 f69d 322e f156 f131 5eab b3af
00000230: 3150 6cb1 b7c6 1235 1622 9a33 b19d 9eac
00000240: a48f 86b1 9b03 89ad 5c2f e0af 6886 4eaf
00000250: 62c7 a92d 96a5 67b2 7c8f 8d32 101a 98b2
00000260: 87dd afb3 d9c0 a8b2 6eb4 6131 c999 2e30
00000270: b10c 7f2d feef a330 d613 362c 4db0 2eb0
00000280: 0382 6faf a16e ff32 b724 6532 4465 96b1
00000290: 93b1 94b0 5d81 0632 e8cd 99ae 8a39 1830
000002a0: 028e a3b1 9552 8cb3 4302 55ae 13dc 1330
000002b0: 00ec 31ad 43ff a730 82b8 97ac a94c 9d2e
000002c0: 9d1b 2bb3 4b95 a4b2 b904 33af d5b3 6231
000002d0: 7cda caaf 23b3 c8b0 5378 f331 6db0 0034
000002e0: 2f5e e332 8031 f433 92c7 c431 5a61 f530
000002f0: b445 12b4 1afc 94b0 90c2 e6b3 0174 83b1
00000300: d663 e52c 39d0 2cb2 7166 0eb1 30a8 27ae
00000310: 912f 9d34 435c 89b2 0407 3733 0a9c bfb2
00000320: 0fc2 1bb0 a930 69b1 a0ba 552b 6723 7d2c
00000330: 42e8 8fb0 7904 20ae 7a82 58b4 f4e1 c5ae
00000340: d635 fcb1 fc92 a630 c516 bcaf 9acf 0730
00000350: 0d01 fc32 51b1 4f32 b289 06b4 4f6d 782f
00000360: 112e c9b2 e948 3fac 04c7 7835 8539 4cb1
00000370: 5403 0232 5db4 f5ae 5d32 c930 4b81 aeaf
00000380: db38 c5b3 472a baaf 6ef3 652e c0da d92d
00000390: f559 3ba9 89fd 92b0 6610 b232 cf3b 6932
000003a0: 28d3 29b1 e01b 8033 d30d 02ae 36b7 9bb1
000003b0: b708 3635 3570 a732 d7e1 30b2 db62 90ab
000003c0: 05e0 3930 f409 04b1 c8d2 852c 7f01 a8b1
000003d0: 2706 08af 6b32 ab30 6978 59b4 4a32 a130
000003e0: 4eae 34b2 5371 61b2 71ae abb1 526e 71a9
000003f0: 7860 4eaf f3d6 dd31 e373 1430 e523 0faf

module.lstm.weight_hh_l1 f4 [512, 128]
-1.6563362e-08 1.095258e-08 1.408004e-07 -6.5498725e-08 9.321304e-08 -2.0784115e-07 -3.0349394e-08 2.1743934e-07
-2.1545697e-10 3.649758e-07 2.693228e-11 -4.447398e-11 -8.094072e-08 -1.1452748e-09 -3.2402102e-08 2.1427398e-07
2.4829016e-11 -1.2657453e-07 -1.4608167e-08 -2.1583679e-07 -2.9225906e-09 -4.6937723e-07 4.4403936e-07 3.3184313e-09
-3.958489e-09 -3.432462e-08 -1.3088892e-07 -4.5689924e-07 2.361774e-07 4.857272e-07 6.656105e-09 -1.9606023e-07
1.4216999e-12 2.7085406e-07 -3.0148072e-07 6.8820576e-08 2.776007e-07 -3.7288964e-07 6.0637774e-08 -3.067656e-08
1.9989804e-08 -4.3703383e-07 -1.5460161e-10 -2.0619905e-07 1.6554814e-10 1.0642246e-09 2.6185998e-07 2.002663e-09
-5.1969666e-12 7.288163e-07 2.4098893e-11 -4.891673e-08 -6.366313e-08 8.642218e-10 -7.1587003e-09 8.219282e-08
2.2433701e-07 3.7482187e-10 1.4967243e-07 9.570602e-08 9.442826e-09 -1.4258698e-10 3.0529501e-13 -2.3178025e-10
4.0481702e-09 -4.6576902e-09 7.4372425e-10 2.098035e-08 -4.1466187e-08 6.724139e-08 7.405698e-08 3.6515775e-08
3.125811e-07 7.344027e-08 1.1182129e-08 -2.9537944e-07 -3.571791e-08 1.6545465e-07 2.047133e-07 3.4070826e-11
2.0356236e-11 -3.0628263e-07 -3.8735543e-08 3.865681e-09 1.8606487e-08 2.5085154e-07 1.1757519e-10 -4.173274e-08
2.7454604e-08 -1.3331825e-07 -1.7370735e-07 8.77033e-08 1.2283104e-12 3.783188e-09 -3.2453062e-10 -4.3751356e-08
-3.4540415e-07 -1.0619629e-07 -2.6363887e-09 4.901261e-11 -1.9372571e-08 2.806147e-07 1.9714884e-07 3.5577392e-07
-1.3534054e-07 2.9911714e-08 -2.6090757e-07 1.0636784e-08 -1.3769936e-07 -3.6741224e-10 -4.248129e-07 1.1941188e-08
-4.0419836e-09 1.2835182e-10 1.0514158e-07 -5.560401e-07 1.5115836e-08 -2.2574094e-09 1.7050593e-07 -1.2504121e-07
-5.4421334e-10 -1.2571971e-07 -1.3729976e-07 -1.5093836e-07 -3.4909405e-08 -9.903773e-10 2.6655326e-07 -3.2975692e-07
9.342823e-09 2.2492094e-08 2.1139859e-09 1.0281764e-08 9.6157706e-08 -2.0051223e-08 -2.8560061e-08 2.0810914e-08
-2.3218891e-09 2.795936e-07 -1.1033874e-10 1.4560403e-08 7.693826e-09 1.0699091e-08 6.8994646e-09 1.4220541e-07
-1.2736953e-10 -7.766761e-08 2.8792526e-09 -3.7649933e-08 -4.307066e-09 -1.4398351e-07 1.3158248e-07 2.1180792e-08
2.9806622e-09 1.1394487e-08 -1.0806767e-07 -3.9077952e-07 6.6857844e-08 3.7586943e-07 1.2543078e-08 -1.13908214e-07
5.5375395e-11 4.8390532e-08 -2.5653952e-07 8.155451e-09 1.9106861e-07 -7.440212e-08 6.770064e-09 7.987131e-09
-5.0429203e-09 -3.6725618e-07 1.373569e-10 -2.6894114e-08 -2.2530976e-10 2.2994825e-10 5.7507936e-08 5.442691e-09
1.7705561e-11 3.5002955e-07 6.262373e-12 4.66493e-09 -5.8264774e-08 6.906305e-09 1.214685e-09 -2.1311648e-09
1.6386058e-07 -4.3398614e-09 7.2222164e-08 -7.495859e-09 8.553115e-09 -9.7272974e-11 3.0802897e-12 6.439846e-10
5.3281437e-09 3.602706e-09 1.5359505e-09 4.6295106e-08 -3.9597925e-08 8.3208356e-08 6.455286e-08 -7.738054e-09
1.0205187e-07 6.615881e-08 -1.6604282e-08 -8.0959516e-08 -2.4552817e-08 1.12531445e-07 3.1883264e-08 -1.669324e-10
-7.2529927e-11 -7.948658e-08 2.8554201e-09 -6.3037864e-10 2.1333026e-08 2.1456853e-07 -5.13888e-10 1.0892565e-08
4.0936403e-08 -4.6847696e-08 -1.9228073e-08 -3.6776762e-09 1.9410166e-12 5.3809592e-09 -9.737708e-10 1.2609952e-08
-2.9845605e-08 -3.663465e-08 2.0738227e-09 -1.7983325e-10 -1.7882325e-08 4.7197055e-08 1.5088217e-07 1.7382938e-07
-9.640996e-09 2.3143183e-08 -6.450734e-08 1.4230975e-08 -1.1206201e-07 -7.062654e-10 -1.7175331e-07 -8.201085e-09
-7.8943163e-10 -5.013962e-10 1.7400803e-11 -2.5142148e-07 -4.750626e-09 3.02408e-09 1.3706648e-07 -4.577002e-09
-3.7700704e-10 -7.3942644e-08 7.782539e-10 -1.8717106e-08 8.154496e-09 3.807377e-09 2.0968943e-07 -8.215727e-08
00000000: 3847 8eb2 f529 3c32 eb2e 1734 4ea8 8cb3
00000010: 692c c833 f12a 5fb4 8359 02b3 4579 6934
00000020: bfe5 6caf e4f1 c334 1ae6 ec2d 4099 43ae
00000030: a2d1 adb3 c667 9db0 7d2a 0bb3 2f13 6634
00000040: f965 da2d 8be8 07b4 66f7 7ab2 c4c0 67b4
00000050: c2d6 48b1 b7fe fbb4 4e64 ee34 760a 6431
00000060: 3d03 88b1 526c 13b3 798a 0cb4 c14b f5b4
00000070: f397 7d34 eb62 0235 b8b3 e431 a084 52b4
00000080: 2316 c82b e669 9134 32db a1b4 83ca 9333
00000090: 2609 9534 9031 c8b4 f837 8233 3cc1 03b3
000000a0: 0bb6 ab32 79a1 eab4 7cfc 29af 9067 5db4
000000b0: a905 362f 1344 9230 c395 8c34 389f 0931
000000c0: 1dda b6ac e0a3 4335 e2f9 d32d 8318 52b3
000000d0: 2db7 88b3 348e 6d30 98f8 f5b1 fb81 b033
000000e0: 4ae1 7034 7d0f ce2f a5b5 2034 f186 cd33
000000f0: fd39 2232 abc6 1caf a6dd ab2a 57d8 7eaf
00000100: 1518 8b31 7a09 a0b1 f16e 4c30 4738 b432
00000110: 8e18 32b3 5866 9033 4109 9f33 85d5 1c33
00000120: d2d0 a734 37b6 9d33 861b 4032 a494 9eb4
00000130: 4268 19b3 d4a7 3134 2acf 5b34 57d8 152e
00000140: 2b0e b32d 2a6f a4b4 2e5e 26b3 e4d2 8431
00000150: 19d4 9f32 c6ac 8634 7946 012f a23d 33b3
00000160: 50d5 eb32 3e26 0fb4 5084 3ab4 6657 bc33
00000170: 8cde ac2b 46fd 8131 a069 b2af 20e9 3bb3
00000180: fc6f b9b4 070e e4b3 d72b 35b1 4b8f 572e
00000190: bc68 a6b2 64a7 9634 dcaf 5334 3201 bf34
000001a0: 2052 11b4 4778 0033 dd12 8cb4 12bd 3632
000001b0: 83da 13b4 adfc c9af d711 e4b4 e625 4d32
000001c0: aae1 8ab1 d31f 0d2f 32ca e133 c942 15b5
000001d0: 13d8 8132 c420 1bb1 5014 3734 1143 06b4
000001e0: 9c97 15b0 92fd 06b4 ac6c 13b4 9f11 22b4
000001f0: 4cef 15b3 ce1d 88b0 cd1a 8f34 7209 b1b4
00000200: 2c82 2032 a334 c132 a245 1131 ada3 3032
00000210: 427f ce33 1b3d acb2 3d54 f5b2 afc3 b232
00000220: 1b8f 1fb1 0d1b 9634 30a3 f2ae 5425 7a32
00000230: ce2d 0432 1acf 3732 5510 ed31 20b1 1834
00000240: 560b 0caf 38ca a6b3 59dc 4531 8ab4 21b3
00000250: 5afd 93b1 e399 1ab4 1e49 0d34 0ef1 b532
00000260: 5dd4 4c31 7cc1 4332 d412 e8b3 54cc d1b4
00000270: 7d93 8f33 1acb c934 0a7d 5732 b49d f4b3
00000280: 278b 732e f4d5 4f33 86ba 89b4 0e1c 0c32
00000290: 8a28 4d34 ffc6 9fb3 1d9e e831 c637 0932
000002a0: ff45 adb1 4e2b c5b4 8806 172f c804 e7b2
000002b0: 0fbb 77af aed4 7c2f a5fe 7633 6b02 bb31
000002c0: 61bd 9b2d b2eb bb34 7156 dc2c 2949 a031
000002d0: cc3e 7ab3 804c ed31 eef1 a630 d973 12b1
000002e0: a7f1 2f34 d31d 95b1 8e18 9b33 23c7 00b2
000002f0: fff0 1232 d1e7 d5ae 91c1 582c 6304 3130
00000300: d912 b731 7993 7731 7419 d330 02d6 4633
00000310: 6112 2ab3 47b0 b233 4fa0 8a33 52f0 04b2
00000320: 9c27 db33 3113 8e33 34a1 8eb2 f7db adb3
00000330: 37e8 d2b2 d1a8 f133 05f0 0833 4b8b 37af
00000340: b87e 9fae 36b2 aab3 1539 4431 f446 2db0
00000350: d23f b732 2664 6634 a741 0db0 0222 3b32
00000360: 0dd2 2f33 9635 49b3 fb2a a5b2 5dba 7cb1
00000370: 3f96 082c 6be3 b831 84d5 85b0 28a3 5832
00000380: 972f 00b3 3958 1db3 1383 0e31 8fba 45af
00000390: a69b 99b2 b6b5 4a33 2d02 2234 dba5 3a34
000003a0: 8ca1 25b2 66cc c632 4987 8ab3 7d7c 7432
000003b0: bea6 f0b3 0223 42b0 316b 38b4 c1e4 0cb2
000003c0: 50ff 58b0 9fd2 09b0 200f 992d 1bfb 86b4
000003d0: f33a a3b1 2ed0 4f31 8c2c 1334 bc43 9db1
000003e0: 0643 cfaf 66ca 9eb3 c0ec 5530 5ac7 a0b2
000003f0: da17 0c32 0bd2 8231 fe26 6134 706e b0b3

module.lstm.bias_ih_l1 f4 [512]
-3.9121132e-05 -7.149186e-05 -0.00217618 -0.0017826672 -0.0013914321 -0.0019557045 -0.00044318914 -0.0036594472
-1.1794509e-06 -0.002471756 -4.597238e-10 -7.250036e-05 -0.0006790889 -5.5190358e-06 -0.00040416556 -0.0027326085
-4.1834522e-10 -0.0028628905 -0.00020687765 -0.002387493 -2.8244644e-05 -0.0032628253 0.0006914824 -0.000364444
-2.596419e-06 -0.0015173854 -0.0016561293 -0.0040395358 -0.0013585003 0.005385817 -0.00027936045 -0.0026077973
-8.3954854e-10 -0.0029565906 -0.0019769417 -0.0002815944 -0.0029897636 -0.003773197 -0.00011834077 -0.0002633153
-8.335498e-05 -0.0050767614 -1.1026574e-08 -0.0024639352 -8.3549274e-08 -7.284297e-07 -0.003163128 -3.9966322e-05
-1.732264e-11 -0.0034165634 -4.517836e-10 -0.0011284843 -0.00068304 -9.710103e-05 -1.3158012e-05 -0.0006440373
-0.0025505263 -6.8480205e-07 -0.0025181272 -0.0016791652 -0.00018943143 -9.197043e-09 -8.4018426e-13 -8.705515e-08
-4.5551442e-05 -0.00048255915 -3.819047e-07 -0.002123214 -0.0014772908 -0.00085387914 -0.0016842019 -0.00033817138
-0.002585752 -0.0010101653 -4.8191672e-05 -0.0028932556 -0.0018287874 -0.0020163245 -0.0017423583 -3.02068e-09
-1.7486848e-10 -0.0027073426 -9.6434196e-05 -8.0830405e-06 -0.001039326 -0.002608325 -1.937453e-08 -0.0013170425
-0.0016957986 -0.00047959536 -0.0018463974 -0.0016598846 -6.619949e-13 -3.352553e-05 -9.492656e-07 -0.0006099011
-0.003069314 -0.00028842303 -1.9379922e-06 -1.5539419e-09 -0.00022532788 -0.002791443 -0.0020872764 -0.0012807337
-0.0009299699 -0.00026051354 -0.0017499261 -0.00026353932 -0.0025939406 -5.4302316e-08 -0.0016871891 -0.00038352996
-1.4888297e-05 -1.05734195e-08 -0.002719324 -0.0017585754 -0.00021171212 -3.7039754e-05 -0.0021414852 -0.0013025716
-1.0606764e-07 -0.0020320904 -0.002036547 -0.001073427 -0.00023924436 -2.1378983e-06 -0.0029536753 -0.00626283
-3.7910562e-05 -6.152356e-05 -0.0021504653 -0.001581561 -0.0013186383 -0.0018466464 -0.00039181413 -0.0035458663
-1.0048989e-06 -0.0044884463 -4.92901e-10 -6.246185e-05 -0.00063152844 -4.558721e-06 -0.00037464302 -0.0033097223
-4.2483725e-10 -0.0033540954 -0.00019483421 -0.002103399 -2.4095929e-05 -0.0038805741 0.0007998664 -0.000328361
-2.4173335e-06 -0.0013573818 -0.0015401046 -0.0019730777 -0.0012687742 -0.0055275103 -0.00023904286 -0.0027865705
-6.515388e-10 -0.0032798026 -0.0018013787 -0.0002523548 -0.00434463 -0.0048089363 -0.000108601074 -0.00024171079
-7.679867e-05 -0.004284942 -1.4653755e-08 -0.00218127 -7.320798e-08 -6.967909e-07 -0.00253813 -3.5656114e-05
-2.4942187e-11 -0.006425689 -4.972757e-10 -0.0011033661 -0.00061467965 -8.066249e-05 -1.2046582e-05 -0.00059047446
-0.0047873673 -5.885447e-07 -0.002583278 -0.001535982 -0.00015739488 -9.571161e-09 -8.8975854e-13 -7.0582225e-08
-3.840478e-05 -0.00043226904 -2.6449345e-07 -0.0021152555 -0.0013611177 -0.0007630689 -0.001569495 -0.0003156455
-0.0009087516 -0.00091442524 -4.7298152e-05 -0.0026049986 -0.001654019 -0.0019976147 -0.0015518753 -2.3331428e-09
-1.8099468e-10 -0.0025870402 -9.0736816e-05 -7.7589675e-06 -0.0009294001 -0.0033280626 -1.7798115e-08 -0.0012266396
-0.0015349181 -0.00041266507 -0.001718418 -0.001571454 -2.1242856e-12 -2.8897735e-05 -8.4895663e-07 -0.000569404
-0.0037231043 -0.00025650003 -2.1644894e-06 -1.4472674e-09 -0.00019435273 -0.0042920546 -0.002062603 -0.0011890377
-0.000866837 -0.00022260647 -0.0015109571 -0.00022779474 -0.003960012 -4.4945235e-08 -0.001731857 -0.00035503582
-1.45133745e-05 -1.0393461e-08 -0.0026626028 -0.005792834 -0.00019367393 -3.467001e-05 -0.0021210606 -0.0011776816
-9.5054695e-08 -0.0019557648 -0.0019220456 -0.000991614 -0.00022395547 -1.9817087e-06 -0.0063711475 -0.00047568453
00000000: ff15 24b8 e6ed 95b8 3e9e 0ebb 63a8 e9ba
00000010: b760 b6ba 472b 00bb d75b e8b9 56d3 6fbb
00000020: a04d 9eb5 2ffd 21bb 5fbc fcaf 560b 98b8
00000030: e204 32ba 2830 b9b6 2fe6 d3b9 9015 33bb
00000040: dbfc e5af 559f 3bbb 4ced 58b9 7c77 1cbb
00000050: e9ee ecb7 20d5 55bb 9944 353a d812 bfb9
00000060: 243e 2eb6 01e3 c6ba 7a12 d9ba 155e 84bb
00000070: b50f b2ba 827b b03b 2077 92b9 94e7 2abb
00000080: fac5 66b0 5cc3 41bb 948f 01bb f6a2 93b9
00000090: e9ef 43bb be47 77bb b82d f8b8 950d 8ab9
000000a0: ddce aeb8 f65a a6bb 636f 3db2 f979 21bb
000000b0: b36b b3b3 4f89 43b5 7b4c 4fbb 83a1 27b8
000000c0: 1e5f 98ad 6ce8 5fbb e45e f8af a6e9 93ba
000000d0: 0a0e 33ba b8a2 cbb8 3bc1 5cb7 9dd4 28ba
000000e0: bb26 27bb 3dd3 37b5 2a07 25bb 6f17 dcba
000000f0: 1da2 46b9 0601 1eb2 a87d 6cab 13f3 bab3
00000100: 7d0e 3fb8 feff fcb9 9508 cdb4 9f25 0bbb
00000110: a7a1 c1ba dcd6 5fba 70c0 dcba 984c b1b9
00000120: b875 29bb 8667 84ba 6a21 4ab8 c69c 3dbb
00000130: ecb3 efba 5024 04bb d85f e4ba 5d94 4fb1
00000140: 1a45 40af ac6d 31bb b73c cab8 659c 07b7
00000150: fe39 88ba 6ff0 2abb 0b6d a6b2 9da0 acba
00000160: 8f45 deba 3372 fbb9 d102 f2ba 7c90 d9ba
00000170: c255 3aab c49d 0cb8 09d1 7eb5 c5e1 1fba
00000180: 8b26 49bb 7c37 97b9 740e 02b6 7892 d5b0
00000190: fe45 6cb9 a4f0 36bb b0ca 08bb 4bde a7ba
000001a0: 39c9 73ba 8995 88b9 c75d e5ba a62b 8ab9
000001b0: 1aff 29bb 073a 69b3 ac24 ddba 8514 c9b9
000001c0: c0c8 79b7 64a6 35b2 b036 32bb 0080 e6ba
000001d0: 0aff 5db9 225b 1bb8 2958 0cbb 0dbb aaba
000001e0: 4dc7 e3b3 d22c 05bb 9777 05bb 3cb2 8cba
000001f0: abdd 7ab9 d078 0fb6 7392 41bb 6d38 cdbb
00000200: 2802 1fb8 3606 81b8 d2ee 0cbb 624c cfba
00000210: 29d6 acba 2c0b f2ba 676c cdb9 c461 68bb
00000220: 10e0 86b5 d113 93bb d37c 07b0 f3fd 82b8
00000230: 288d 25ba 1df7 98b6 bc6b c4b9 ede7 58bb
00000240: 878e e9af 62d0 5bbb 694c 4cb9 2ed9 09bb
00000250: 9d21 cab7 3b51 7ebb 20ae 513a de27 acb9
00000260: 7939 22b6 2dea b1ba 56dd c9ba c04e 01bb
00000270: ff4c a6ba 1e20 b5bb 94a7 7ab9 e59e 36bb
00000280: f817 33b0 f5f1 56bb 3d1c ecba 7d4e 84b9
00000290: 665d 8ebb 4894 9dbb c2c0 e3b8 bf73 7db9
000002a0: f90e a1b8 b368 8cbb e5bf 7bb2 a3f3 0ebb
000002b0: 8336 9db3 1b0b 3bb5 c156 26bb 768d 15b8
000002c0: d064 dbad 968e d2bb abb0 08b0 d39e 90ba
000002d0: 7422 21ba 5829 a9b8 ad1b 4ab7 12ca 1aba
000002e0: 59df 9cbb 7cfc 1db5 374c 29bb 0153 c9ba
000002f0: 5e0a 25b9 696e 24b2 dc71 7aab fd92 97b3
00000300: d214 21b8 2ba2 e2b9 b4ff 8db4 19a0 0abb
00000310: 8867 b2ba b008 48ba 83b7 cdba 397d a5b9
00000320: 4a39 6eba 0ab6 6fba 0162 46b8 a0b8 2abb
00000330: abcb d8ba 6aea 02bb 4b68 cbba 1555 20b1
00000340: 7901 47af 558b 29bb f549 beb8 832c 02b7
00000350: fca2 73ba a01b 5abb 78e2 98b2 32c7 a0ba
00000360: 4e2f c9ba f85a d8b9 8a3c e1ba 3ff9 cdba
00000370: ba7b 15ac 6a69 f2b7 dbe3 63b5 0e44 15ba
00000380: 53ff 73bb da7a 86b9 a541 11b6 32e9 c6b0
00000390: 2acb 4bb9 5da4 8cbb bc2c 07bb 7cd9 9bba
000003a0: 723c 63ba 786b 69b9 4f0b c6ba 2fdc 6eb9
000003b0: fdc2 81bb cf09 41b3 7aff e2ba 1a24 bab9
000003c0: 787e 73b7 ed8e 32b2 107f 2ebb d0d1 bdbb
000003d0: f314 4bb9 a46a 11b8 7e01 0bbb 705c 9aba
000003e0: df20 ccb3 4a2c 00bb 26ed fbba 0bf9 81ba
000003f0: 97d5 6ab9 7ffd 04b6 0fc5 d0bb 4c65 f9b9
